任务一-图片分类/best_model.pth (torch, 734690 bytes, 77 tensors)

conv1.weight f4 [16, 3, 3, 3]
0	0xbe2a58ab	-0.16635387
1	0xbd8efc42	-0.06981708
2	0xbe3dd7b8	-0.18539321
3	0xbe1016ea	-0.14071241
4	0x3d9b396f	0.07579314
5	0xbd8cfb12	-0.06883825
6	0x3e2fcb4f	0.171674
7	0xbda0d9d6	-0.07854049
8	0x3e579eda	0.21056691
9	0xbd9c3cec	-0.076288074
10	0x3e7bb00e	0.24578878
11	0x3e445cd3	0.19176035
12	0xbe39b321	-0.18134739
13	0x3db60356	0.08887355
14	0xbe652696	-0.22378
15	0xbce54d7f	-0.027991055
16	0xbd9aec33	-0.07564583
17	0xbd8f224a	-0.06988962
18	0x3e0bcf44	0.13653284
19	0x3e677c9f	0.22606133
20	0xbbfd6da0	-0.0077340156
21	0x3da7f65c	0.08201286
22	0x3d9048ce	0.070451364
23	0xbe2cf5e2	-0.16890672
24	0xbe0ca412	-0.13734463
25	0x3e06661a	0.13124886
26	0xbc8fb2c3	-0.017541295
27	0xbbfa49c0	-0.007638186
28	0xbc138257	-0.009003243
29	0xbe83e3d7	-0.25759766
30	0x3e878119	0.2646568
31	0x3db4da59	0.08830709
32	0xbe626a27	-0.22110806
33	0xbd08753b	-0.033314925
34	0x3e5bb597	0.2145599
35	0xbc14b4e1	-0.009076328
36	0xbd7a5da6	-0.061124466
37	0xbcc8e83d	-0.024524802
38	0xbe2b8883	-0.16751294
39	0xbcee3b25	-0.029080937
40	0xbdd6c90e	-0.10487567
41	0x3e003a48	0.12522233
42	0xba624b0e	-0.00086324
43	0xbdd95e16	-0.106136486
44	0x3e69f70e	0.2284815
45	0x3e217eb4	0.1577099
46	0x3bcdbccb	0.0062786094
47	0xbea8beaf	-0.3295798
48	0x3e91921a	0.2843178
49	0x3e312c90	0.17302155
50	0xbe72b652	-0.23702362
51	0xbc89f49c	-0.016840272
52	0xbc1494dc	-0.009068694
53	0xbd3e182a	-0.046409763
54	0x3e18800c	0.14892596
55	0x3dd5dd1f	0.10442566
56	0xbeb61fa1	-0.35571006
57	0x3deadf8d	0.1146842
58	0x3da95937	0.082689695
59	0xbe5dc2b6	-0.21656308
60	0x3e03244e	0.12806818
61	0x3e9092c4	0.28236973
62	0x3e080e3b	0.13286678
63	0x3e0d2e19	0.13787116
64	0xbd5df022	-0.054184087
65	0xbe617c31	-0.22020032
66	0xbd5c9fd6	-0.05386337
67	0xbddf2243	-0.10895207
68	0xbe1ed03b	-0.15509121
69	0xbce08b59	-0.027410196
70	0x3de9ea57	0.1142165
71	0xbc309995	-0.010778804
72	0xbe33444c	-0.17506522
73	0x3e819e1a	0.25315934
74	0x3d0878f6	0.033318482
75	0xbdda7fe2	-0.10668923
76	0x3e720035	0.23632891
77	0xbd77bd12	-0.060483046
78	0x3dc109e7	0.09425717
79	0x3d824623	0.06361034
80	0xbda61044	-0.08108571
81	0xbe18dbf3	-0.14927654
82	0x3e072598	0.13197935
83	0xbe02072e	-0.12698051
84	0x3e0e48b3	0.1389492
85	0xbe0b325b	-0.13593428
86	0xbc691106	-0.01422525
87	0xbe1419f0	-0.1446302
88	0xbbf80755	-0.0075692334
89	0xbd2ca12b	-0.04214589
90	0xbe7c687c	-0.24649233
91	0x3db4095e	0.08790849
92	0x3e2b1ad3	0.16709451
93	0x3d5d8436	0.054081164
94	0x3e6c8637	0.23098074
95	0x3e572c0c	0.21012896
96	0xbe0ee52d	-0.13954611
97	0x3d5ab511	0.053395335
98	0xbc9ef720	-0.019404948
99	0xbcf8bf02	-0.030364517
100	0x3daf6918	0.08564967
101	0x3e741b8b	0.23838632
102	0x3e9122b1	0.2834678
103	0x3ee30484	0.44339383
104	0x3d873218	0.066013515
105	0xbdb1c6e5	-0.08680514
106	0x3db245c9	0.08704717
107	0x3d05779a	0.032584764
108	0x3dee8b02	0.116476074
109	0xbe652ea9	-0.2238108
110	0x3e58cb6d	0.21171351
111	0x3e1a9e7e	0.15099522
112	0x3d9e139b	0.07718583
113	0xbe017c38	-0.12645042
114	0xbde5ff49	-0.112303324
115	0xbcd1315d	-0.025536234
116	0xbb3521ee	-0.0027638632
117	0xbe5d4ccb	-0.21611325
118	0xbe27a83a	-0.16372767
119	0x3d946c4e	0.0724722
120	0xbdabca98	-0.08388251
121	0x3d4e22b2	0.050326057
122	0x3e73ce03	0.23809056
123	0xbd9ef496	-0.07761495
124	0x3e19e665	0.15029295
125	0xbdf0a821	-0.11750818
126	0x3d17f38e	0.037097506
127	0xbe16d59f	-0.14729927
128	0xbe209d8c	-0.156851
129	0x3de699a5	0.11259774
130	0x3e89d530	0.26920462
131	0xbe0fb519	-0.14033927
132	0xbd87c4a5	-0.06629304
133	0x3d81d351	0.063391335
134	0x3e163fed	0.14672823
135	0x3b225c10	0.0024774112
136	0x3e5bb9d8	0.21457613
137	0xbd0bd5ea	-0.03413955
138	0x3e09017b	0.13379471
139	0x3ecdf73a	0.4022768
140	0x3e54a47f	0.20765875
141	0x3d8e6ec1	0.069547184
142	0x3d9061c9	0.07049901
143	0xbce3ee8c	-0.027823709
144	0xbdf1cec3	-0.11807015
145	0xbe4a34ec	-0.1974675
146	0xbdbe77c9	-0.09300191
147	0xbe7aeb79	-0.24503888
148	0xbe2a1a10	-0.16611505
149	0xbe57e3e9	-0.21083035
150	0xbd9c017f	-0.07617473
151	0x3c9f5d60	0.019453704
152	0xbe379937	-0.1792954
153	0x3db20edf	0.08694243
154	0x3e68c539	0.22731484
155	0xbde07b13	-0.109609745
156	0x3e2ceec6	0.1688796
157	0xbd99cadb	-0.07509395
158	0xbe215cfa	-0.15758124
159	0x3d8f0415	0.069832005
160	0xbe0000bc	-0.1250028
161	0x3e4c8b61	0.19975044
162	0xbe89b7b8	-0.2689798
163	0xbe059de5	-0.13048513
164	0x3d7069d6	0.058694683
165	0x3dc730df	0.09726118
166	0x3e836398	0.25661922
167	0x3da178d8	0.07884377
168	0x3dfc16f3	0.12309065
169	0xbe00f1f7	-0.12592302
170	0xbdfc2674	-0.12312022
171	0x3e1744dc	0.14772362
172	0xbdf9bbe7	-0.12194043
173	0xbc502d34	-0.01270609
174	0x3e573820	0.21017504
175	0x3e1d0aba	0.15336123
176	0xbd9a185c	-0.075241774
177	0x3de3945d	0.111122824
178	0xbe009946	-0.12558469
179	0xbe92a8b2	-0.2864433
180	0x3dea8cc9	0.11452634
181	0x3e1acff5	0.15118392
182	0xbda198f4	-0.078905016
183	0x3da4605c	0.080261916
184	0x3de1665c	0.110058516
185	0x3d3d4ff2	0.04621882
186	0xbe3613eb	-0.17781036
187	0xbe0d537c	-0.13801378
188	0xbe4c2c0a	-0.19938675
189	0x3e59fc43	0.21287636
190	0x3e51e6f1	0.20498253
191	0xbe7bf3c6	-0.24604711
192	0x3e1b79dd	0.15183206
193	0xbe59c782	-0.21267512
194	0xbd79647d	-0.06088685
195	0xbdbbbb92	-0.091666356
196	0xbe7e1ca0	-0.24815607
197	0x3c96dbbb	0.018415323
198	0xbdffb6a8	-0.12486011
199	0xbe8a54f5	-0.27017942
200	0xbd9184a2	-0.07105376
201	0xbdaab9c6	-0.08336215
202	0xbd6c4d14	-0.057690695
203	0x3dbdd0e3	0.092683576
204	0x3d7e2d95	0.06205519
205	0x3c4da222	0.0125508625
206	0xbdedd4ad	-0.1161283
207	0xbd7958f2	-0.06087584
208	0x3e490557	0.19630943
209	0xbdbdcaaa	-0.09267171
210	0x3e536850	0.20645261
211	0x3eb8dba5	0.36105075
212	0xbc416ae6	-0.011805272
213	0x3daa8872	0.08326806
214	0x3e08930e	0.13337347
215	0x3e9133ec	0.28359926
216	0xbe4fadc1	-0.20281126
217	0xbe8d4614	-0.27592528
218	0xbe7cea30	-0.2469871
219	0xbdb8b2cf	-0.0901848
220	0x3e8ddeff	0.27709195
221	0x3e7add5f	0.24498509
222	0x3e95c0b5	0.29248586
223	0xbd6dd5bb	-0.058065157
224	0x3d941172	0.0722989
225	0xbdb9a839	-0.09065289
226	0xbe6f6f06	-0.23382196
227	0xbdc9105c	-0.098175734
228	0xbd1d5632	-0.03841228
229	0x3e4ac711	0.198025
230	0x3de1022c	0.109867424
231	0x3dd12aae	0.10213219
232	0xbde0708b	-0.10958966
233	0x3e12d841	0.14340307
234	0x3d110849	0.035408292
235	0x3d7397f2	0.05947108
236	0x3cb06fb7	0.021537645
237	0xba341adf	-0.0006870459
238	0x3dc5057a	0.09620185
239	0xbdce2b13	-0.100668095
240	0xbbb7f356	-0.0056137247
241	0xbe74e265	-0.23914488
242	0x3d75454b	0.059880536
243	0x3d53b80b	0.05168919
244	0xbd200f7b	-0.039077263
245	0x3e3bddc9	0.18346323
246	0x3e8c8b11	0.2744985
247	0x3de50e71	0.11184395
248	0xbd3fea95	-0.046854574
249	0x3da128c1	0.07869101
250	0xbb8efc5b	-0.004363579
251	0xbe396e14	-0.18108398
252	0xbe31557b	-0.17317764
253	0x3e059f6c	0.13049096
254	0xbdbd2691	-0.092358716
255	0xbe1973cc	-0.14985579

bn1.weight f4 [16]
0	0x3f86396f	1.0486277
1	0x3f5b6d32	0.85713494
2	0x3f47ddc9	0.7807279
3	0x3f3afaab	0.7303874
4	0x3f6a7ccc	0.91596675
5	0x3f68534c	0.907521
6	0x3f8493f5	1.0357653
7	0x3f32a561	0.697836
8	0x3f5487d2	0.83019745
9	0x3f80e135	1.0068728
10	0x3f81ca16	1.0139797
11	0x3f823a6c	1.0174079
12	0x3f803a31	1.0017759
13	0x3f660e54	0.89865613
14	0x3f7b9290	0.9827051
15	0x3f712346	0.9419445

bn1.bias f4 [16]
0	0x3ec959d9	0.3932636
1	0x3dc30892	0.09523119
2	0x3dd7403b	0.10510298
3	0xbeb4869f	-0.35258958
4	0x3f2153c3	0.63018435
5	0x3eb5a4c9	0.35477284
6	0x3ea773fc	0.32705677
7	0x3e808b7d	0.2510642
8	0x3e12d0b2	0.14337423
9	0xbb7f1df2	-0.003892776
10	0x3ec44d2d	0.3834013
11	0xbe679657	-0.22615944
12	0x3e4daf94	0.20086509
13	0x3f0957f3	0.53649825
14	0x3f42771e	0.7596301
15	0xbd3bebc6	-0.045879148

bn1.running_mean f4 [16]
0	0xbc8dd372	-0.017312739
1	0x3c4fc1dc	0.012680497
2	0xbd567989	-0.052362
3	0xbe891a9f	-0.26778123
4	0xbc6e764f	-0.014554574
5	0xbbfeb898	-0.00777347
6	0x3b7a1658	0.003816029
7	0xbde90555	-0.1137797
8	0x3bff320a	0.0077879475
9	0x3ca6c401	0.020357134
10	0x3c6b0f7d	0.014346954
11	0x3ded1dca	0.115779474
12	0x3c91e309	0.017808454
13	0xbaea31e9	-0.0017867658
14	0xbae0d5f3	-0.0017153606
15	0xbaf15cbf	-0.0018414481

bn1.running_var f4 [16]
0	0x3d090c48	0.033458978
1	0x3df43ec7	0.11926036
2	0x3e00179e	0.12509009
3	0x3eeafd82	0.45896536
4	0x3cccabc2	0.024984244
5	0x3d43a40d	0.047763873
6	0x3dcc9cd0	0.09990847
7	0x3db43a25	0.08800153
8	0x3dbaeaa2	0.09126784
9	0x3dd64cd3	0.10463872
10	0x3d656d87	0.056012657
11	0x3e1b627b	0.15174286
12	0x3d006684	0.031347767
13	0x3cf5c401	0.030000689
14	0x3cf8da7a	0.030377615
15	0x3cfb3bf1	0.03066823

layer1.0.conv1.weight f4 [16, 16, 3, 3]
0	0x3d9f568d	0.0778018
1	0x3d927f07	0.07153135
2	0xbcdea9ff	-0.02718067
3	0xbd89a46b	-0.06720813
4	0xbc303a92	-0.010756152
5	0xbe0a6e3a	-0.1351861
6	0xbe5a8ad4	-0.21342021
7	0xbe8b355d	-0.2718915
8	0xbd3f53f3	-0.04671092
9	0x3cb8a1e4	0.022538133
10	0xbda8c9bb	-0.08241602
11	0xbb4acea3	-0.003094592
12	0xbd88e5ef	-0.06684481
13	0xbdaade53	-0.08343186
14	0x3db398d3	0.08769383
15	0x3d802509	0.06257064
16	0x3d968767	0.07350045
17	0x3dd84623	0.105602525
18	0xbe3d9fc2	-0.18517974
19	0xbe1706aa	-0.14748636
20	0xbd1f48c7	-0.038887765
21	0xbe57a795	-0.21060021
22	0x3d5a7dc0	0.05334258
23	0x3d095920	0.03353226
24	0xbe36db03	-0.17856984
25	0x3d8544e0	0.065072775
26	0xbdf40471	-0.1191491
27	0x3dee3aae	0.11632286
28	0xbd95780b	-0.07298287
29	0xbdcc9c49	-0.099907465
30	0xbc4e697a	-0.01259839
31	0xbd29e19f	-0.041474935
32	0xbd719c3c	-0.058986887
33	0xbcdc33d4	-0.026880182
34	0x3a9a8146	0.0011787794
35	0xbe056635	-0.1302727
36	0xbe4a7545	-0.19771297
37	0xbd32e02d	-0.043670822
38	0x3e30a23b	0.17249386
39	0xbd878d76	-0.066187784
40	0xbc5578ca	-0.013029287
41	0x3e42ae39	0.19011773
42	0xbe730977	-0.2373408
43	0xbc9683f0	-0.01837346
44	0x3e6c06b2	0.23049429
45	0x3dcb1875	0.09916774
46	0x3e1fd0a6	0.15606937
47	0x3d14d6ff	0.03633785
48	0x3d21a782	0.03946639
49	0x3da966d7	0.08271568
50	0xbdd6e2a4	-0.10492447
51	0xbdca78ee	-0.09886347
52	0xbbf5247d	-0.0074811564
53	0xbe19b735	-0.15011294
54	0x3dccd208	0.10000998
55	0x3d179fd0	0.037017643
56	0xbdd3c462	-0.103401914
57	0x3d46628d	0.04843383
58	0xbe12fed4	-0.14355022
59	0xbe47694a	-0.19473758
60	0xbd75ac40	-0.059978724
61	0xbd34c8ba	-0.04413674
62	0x3d86bfa0	0.06579518
63	0x3d7e23f9	0.062046025
64	0xbda52eda	-0.08065577
65	0x3d3a2434	0.045444682
66	0xbd15f881	-0.036613945
67	0xbdb58016	-0.08862321
68	0x3e03b5e0	0.12862349
69	0xbc5f32db	-0.013622965
70	0x3db1bcf4	0.08678618
71	0xbc20dc09	-0.0098180855
72	0x3dd54c7f	0.10414981
73	0x3d077c88	0.033077747
74	0x3d48973d	0.048972357
75	0x3de9e6a3	0.114209436
76	0xbe471533	-0.1944168
77	0x3d4dc99b	0.050241094
78	0xbc93a74e	-0.018024113
79	0x3cf14a15	0.02945427
80	0x3e4b4cab	0.19853465
81	0x3cc2528d	0.023721004
82	0x3e324f9b	0.1741318
83	0xbd4f1af6	-0.05056282
84	0xbc28f274	-0.010311712
85	0x3e00d76c	0.12582177
86	0xbd9f6472	-0.0778283
87	0xbca53aca	-0.020169634
88	0x3db4edb1	0.088343985
89	0xbdae608f	-0.08514511
90	0xbe490f71	-0.19634797
91	0xbd8690c1	-0.06570578
92	0x3d7defe5	0.06199636
93	0xbdf8a3bf	-0.12140607
94	0xbe058b99	-0.13041534
95	0x3da8abaa	0.08235867
96	0xbe64e967	-0.22354661
97	0xbdc6f2f6	-0.0971431
98	0x3e37f9fc	0.17966455
99	0xbdd4d439	-0.10392041
100	0xbe2a4372	-0.16627291
101	0xbe558033	-0.20849685
102	0xbd8d5ef8	-0.069028795
103	0x3b85c047	0.004081759
104	0xbd7a391d	-0.061089624
105	0x3d099c28	0.033596188
106	0x3dc99165	0.09842185
107	0x3e05e4ef	0.13075612
108	0xbcb51fb5	-0.022109846
109	0x3caea5bf	0.021319268
110	0xbd186048	-0.037201196
111	0xbcfbd5be	-0.030741569
112	0xbd989788	-0.07450777
113	0x3e2ad68b	0.16683404
114	0x3d88c221	0.06677652
115	0x3df60766	0.1201313
116	0x3d83a72d	0.064283706
117	0x3d2b9d64	0.041898146
118	0x3e162ed3	0.146663
119	0xbddfd6ec	-0.10929665
120	0xbd4e8e73	-0.05042882
121	0x3da2a5a1	0.079417475
122	0xbb1dc49a	-0.0024073482
123	0xbd518ff5	-0.05116268
124	0x3e9c2990	0.3050046
125	0x3d72360a	0.059133567
126	0x3ce41cd6	0.027845781
127	0xbe19c207	-0.15015422
128	0xbdeb3363	-0.114844106
129	0xbca119cc	-0.019665621
130	0xbd8a7515	-0.06760613
131	0xbe1ba1ad	-0.15198393
132	0x3e010170	0.12598205
133	0x3dfe5410	0.124183774
134	0x3e0945d1	0.13405539
135	0x3dc6def9	0.097104974
136	0xbda93203	-0.08261492
137	0xbe0639f0	-0.13108039
138	0x3e292ea9	0.16521706
139	0x3d052fdb	0.03251634
140	0x3cccf4f3	0.025019145
141	0x3e4cdbce	0.20005724
142	0x3d15af03	0.036543857
143	0x3daac57e	0.0833845
144	0x3d316e01	0.0433178
145	0xbe211eef	-0.15734456
146	0x3decdd45	0.11565641
147	0x3db97be2	0.09056832
148	0x3de41e75	0.11138622
149	0x3e35cb29	0.1775328
150	0xbdbaed98	-0.09127349
151	0xbe44e69d	-0.19228597
152	0xbc833a63	-0.016019052
153	0xbbce8aab	-0.0063031516
154	0xbd032865	-0.032020945
155	0x3d11142f	0.03541964
156	0xbd296c9d	-0.041363347
157	0xbce1eab1	-0.02757773
158	0xbd613eae	-0.054991417
159	0x3e207261	0.15668632
160	0x3dc1d67a	0.09464736
161	0xbe1c03dc	-0.15235847
162	0xbe213de8	-0.15746272
163	0xbe1c01c6	-0.15235052
164	0xbdbf6665	-0.09345702
165	0xbce7469b	-0.02823191
166	0xbdd72a52	-0.10506119
167	0xbc035b21	-0.008017332
168	0x3d4fb660	0.050711036
169	0x3d54938d	0.051898528
170	0x3cc3e9ea	0.02391525
171	0xbda98611	-0.08277524
172	0xbde1cdf1	-0.11025608
173	0xbda39ecf	-0.07989275
174	0x3d11f052	0.035629578
175	0xbd2a7d2a	-0.041623272
176	0xbd8a3264	-0.067478925
177	0x3dd4b64b	0.10386332
178	0xbe03291b	-0.12808649
179	0xbc3ba604	-0.011453155
180	0x3c870e39	0.016486274
181	0xbd741196	-0.059587084
182	0x3da60233	0.08105888
183	0xbe0ecf2c	-0.13946217
184	0xbc818b2e	-0.015813436
185	0xbe5dcde1	-0.21660568
186	0xbd4ee4fd	-0.05051135
187	0x3c9a5d4e	0.01884332
188	0xbd33c24c	-0.043886468
189	0x3e19bfc0	0.15014553
190	0x3cdd95e4	0.027049012
191	0x3d87e59d	0.06635592
192	0x3ddb0fe7	0.106963925
193	0xbabc540d	-0.0014368311
194	0x3d4a9d69	0.049466524
195	0x3da74f15	0.081693806
196	0xbc6c5c64	-0.0144263245
197	0x3d4d2f8b	0.05009417
198	0xbda1f021	-0.07907129
199	0xbd186541	-0.03720594
200	0xbd1b39c6	-0.037896894
201	0xbd8449b9	-0.06459374
202	0xbe168332	-0.14698485
203	0xbe19ac59	-0.15007152
204	0x3d69c91e	0.057076566
205	0xbc9bfb9a	-0.019040871
206	0x3df9a77f	0.121901505
207	0x3de63551	0.11240638
208	0xbc964d26	-0.018347334
209	0x3c926415	0.017869988
210	0x3d324098	0.043518633
211	0x3dc63a98	0.096791446
212	0x3db5da9a	0.088795856
213	0x3d711ca6	0.058865212
214	0x3ccb522f	0.024819462
215	0xbdc4efb6	-0.09616034
216	0xbd53dc7d	-0.051723946
217	0xbd88af45	-0.06674055
218	0xbcaac3bd	-0.020845288
219	0x3c8853e2	0.016641561
220	0x3d4c4360	0.04986894
221	0x3d848947	0.06471496
222	0xbd46b3ae	-0.0485112
223	0xbccb594f	-0.02482286
224	0xbe07334b	-0.1320316
225	0xbc16f126	-0.009212768
226	0xbc9a8b5e	-0.018865284
227	0xbd95632d	-0.07294307
228	0xbd4f4c43	-0.05060984
229	0x3cb099c7	0.021557702
230	0x3ca369d8	0.019947931
231	0xbe75b2d7	-0.23994003
232	0xbe46225a	-0.19349042
233	0xbe4a3d09	-0.19749846
234	0xbd847fa2	-0.064696565
235	0x3d03321c	0.03203021
236	0xbdee76df	-0.116437666
237	0xbd139366	-0.036029242
238	0xbd45b62d	-0.04826944
239	0x3da655d8	0.08121842
240	0xbd86e0c9	-0.06585843
241	0x3da8eac6	0.082479045
242	0x3d074e84	0.033033863
243	0xbbc5cffb	-0.006036756
244	0x3cedce0e	0.029028919
245	0x3c9b769f	0.018977461
246	0x3db5ce08	0.08877188
247	0x3deeaa1f	0.11653542
248	0xbb16286e	-0.0022912282
249	0x3dea116b	0.114291035
250	0x3e5534ce	0.20820925
251	0x3d29282a	0.04129807
252	0xbc878ae6	-0.016545724
253	0xbd0d4aca	-0.034495153
254	0xbea80850	-0.32818842
255	0x3d49caab	0.049265545

layer1.0.bn1.weight f4 [16]
0	0x3f689fa2	0.9086858
1	0x3f7745f7	0.9659113
2	0x3f6223b8	0.8833575
3	0x3f7a8b98	0.97869253
4	0x3f8c00d5	1.0937754
5	0x3f880634	1.0626893
6	0x3f70792d	0.939349
7	0x3f6415a8	0.89095545
8	0x3f8215d4	1.0162911
9	0x3f8e9205	1.1138312
10	0x3f5e6bb0	0.8688307
11	0x3f88a168	1.0674257
12	0x3f8589bd	1.0432659
13	0x3f751904	0.95741296
14	0x3f8675bd	1.0504681
15	0x3f85bcf3	1.0448288

layer1.0.bn1.bias f4 [16]
0	0xbe17b28e	-0.14814207
1	0x3ce16611	0.02751449
2	0xbd48df65	-0.04904117
3	0xbcd3f379	-0.025872933
4	0x3cf075d5	0.029353062
5	0x3cb5300b	0.022117635
6	0x3e315689	0.17318167
7	0x3e07077f	0.13186453
8	0xbcda46ec	-0.026645146
9	0x3e2665e2	0.16249803
10	0x3d85c19a	0.06531067
11	0xbe12770f	-0.1430323
12	0x3e837a98	0.2567947
13	0xbe2fba1a	-0.17160836
14	0xbc84b1ec	-0.016198121
15	0x3f1a6068	0.60303354

layer1.0.bn1.running_mean f4 [16]
0	0xbef33e84	-0.47508633
1	0xbfccbda9	-1.599538
2	0xbedce424	-0.43142807
3	0xbf94b045	-1.1616293
4	0x3da10ddc	0.078639716
5	0xbfb5ee7b	-1.4213403
6	0xbf733310	-0.9499979
7	0xbffcf409	-1.9761974
8	0xbf9345b5	-1.1505648
9	0xbf090b6c	-0.53533053
10	0xbdf3c241	-0.11902285
11	0xbed39c21	-0.41330054
12	0xbf6d20fd	-0.9262846
13	0x3f0c557e	0.5481795
14	0xbf68ac17	-0.9088759
15	0xbf21f27c	-0.63260627

layer1.0.bn1.running_var f4 [16]
0	0x3f337f7d	0.70116407
1	0x3feacd14	1.8343835
2	0x3fa11b56	1.2586467
3	0x40064d12	2.098454
4	0x3fa32dfa	1.2748406
5	0x3ff85c44	1.9403157
6	0x3f2b8d46	0.6701244
7	0x40026700	2.0375366
8	0x4035a656	2.8382773
9	0x4029f3bd	2.6555016
10	0x3f99e14f	1.2021884
11	0x3f340a0a	0.7032782
12	0x3fa2c1b3	1.2715362
13	0x40182e83	2.3778389
14	0x3fdbb87b	1.7165674
15	0x3f1324ca	0.5747801

layer1.0.conv2.weight f4 [16, 16, 3, 3]
0	0x3d34e401	0.044162754
1	0x3dc15c6c	0.09441456
2	0x3d984263	0.07434537
3	0x3e104a18	0.14090765
4	0x3dcd3299	0.10019416
5	0x3d0be84e	0.03415709
6	0x3bcc5056	0.0062351627
7	0x3dd93d43	0.10607388
8	0x3cffbd0b	0.031218072
9	0xbd84553d	-0.064615704
10	0x395f34e7	0.00021286645
11	0xbd821deb	-0.06353363
12	0xbdb9fdde	-0.090816244
13	0xbdfbc9ee	-0.122943744
14	0x3d8e562e	0.06950031
15	0x3d26f9fe	0.040765755
16	0xbe06cc8f	-0.1316397
17	0x3d98a5f6	0.074535295
18	0x3d1b2049	0.037872586
19	0xbd4149d8	-0.047189564
20	0xbd80633a	-0.06268926
21	0xbde40b43	-0.111349605
22	0xbde03742	-0.109480396
23	0xbc268956	-0.010164579
24	0xbcb4948d	-0.02204349
25	0x3d5f2562	0.05447901
26	0x3e04358b	0.1291105
27	0xbdcb4655	-0.09925524
28	0xbe669f6a	-0.22521749
29	0xbe2b8719	-0.16750754
30	0x3d3dbfa6	0.04632535
31	0xbd486cf5	-0.048932035
32	0xbb29535f	-0.0025837047
33	0x3de256ac	0.110516876
34	0xbdb982be	-0.0905814
35	0xbd67b85a	-0.056572296
36	0xbe0c9545	-0.13728817
37	0xbc88dffe	-0.01670837
38	0xbdc55ac9	-0.096364565
39	0x3d5aaa85	0.053385276
40	0xbce3b582	-0.02779651
41	0xbe0dedd9	-0.13860263
42	0x3c49d624	0.0123191215
43	0x3c9ad842	0.018901948
44	0x3e56515c	0.20929474
45	0x3d935061	0.071930654
46	0x3d9d8677	0.07691663
47	0xbcccfab4	-0.025021888
48	0xbdce128e	-0.10062133
49	0x3c40c3a5	0.011765395
50	0xbdeb19f0	-0.114795566
51	0xbdf14898	-0.11781424
52	0xbdea1094	-0.11428943
53	0xbbdab0c2	-0.006673903
54	0x3d38b6b7	0.045096125
55	0xbe2fb2bb	-0.17158024
56	0xba829434	-0.0009962381
57	0x3c712350	0.014717892
58	0x3c8e715a	0.017388035
59	0xba11dce0	-0.0005564224
60	0x3d06ded7	0.03292736
61	0x3d387080	0.045029163
62	0x3d34693b	0.044045668
63	0x3db36426	0.08759336
64	0x3e18517d	0.14874835
65	0x3dbfbadd	0.09361813
66	0xba3e5032	-0.0007259875
67	0x3e30ec22	0.17277578
68	0x3c9d2311	0.01918176
69	0xbe3e1c0d	-0.18565388
70	0xbcc43529	-0.02395113
71	0xbe43b66e	-0.1911256
72	0xbd888404	-0.06665805
73	0xbdb7e2a4	-0.08978775
74	0xbda0ded2	-0.078549996
75	0x3c8e55d7	0.017374916
76	0xbd970f5b	-0.07375976
77	0xbdf40fda	-0.11917086
78	0x3d8709ee	0.06593691
79	0x3d3fcd86	0.04682686
80	0xbd6caf6b	-0.05778448
81	0x3def687f	0.11689853
82	0xbc6340e8	-0.013870455
83	0xbe26964e	-0.16268274
84	0x3e5f7f1c	0.21825832
85	0x3c974a16	0.018467944
86	0xbe9cf2ca	-0.30653983
87	0xbd79f152	-0.061021157
88	0xbcbd05a6	-0.023073982
89	0xbd62d746	-0.055381082
90	0x3d39c1aa	0.045350708
91	0x3d56290e	0.052285247
92	0xbd9e96f4	-0.07743636
93	0xbdcf20a7	-0.1011365
94	0x3dc82a64	0.0977371
95	0xbe6a891a	-0.22903863
96	0xbe74d4c5	-0.2390929
97	0xbce5fd25	-0.02807481
98	0xbe0a91d6	-0.13532194
99	0x3e66c835	0.2253731
100	0x3e46aade	0.19401118
101	0x3d78dfaf	0.060760196
102	0x3d34990f	0.04409128
103	0x3dad3d30	0.08458936
104	0xbc89aa70	-0.016804904
105	0x3da99ec9	0.08282239
106	0x3df073c6	0.11740832
107	0xbe0715a1	-0.13191845
108	0xbe29a2b0	-0.16565967
109	0x3d113601	0.035451893
110	0x3e44de94	0.19225532
111	0xbe6dfa1f	-0.23239945
112	0x3e1fb669	0.15596928
113	0x3d5b5ef5	0.053557355
114	0xbdd0b2ad	-0.1019033
115	0xbd9091eb	-0.07059082
116	0xbb868183	-0.0041047945
117	0x3c48bab3	0.012251544
118	0xbdfdaf15	-0.1238691
119	0x3dbcdd55	0.09221903
120	0xbdefbceb	-0.11705955
121	0xbcf1ee5e	-0.029532608
122	0x3e445e58	0.19176614
123	0xbd893f54	-0.06701532
124	0xbccffe7c	-0.025389902
125	0x3e8a8bc6	0.27059764
126	0xbdc21ac0	-0.094777584
127	0xbd32a463	-0.043613803
128	0xbda899ae	-0.08232437
129	0xbc5afa88	-0.013365395
130	0xbbd7f697	-0.006590675
131	0x3c229b67	0.009924746
132	0xbd983623	-0.07432201
133	0xbe28fc93	-0.165026
134	0xbdb9a908	-0.09065443
135	0x3d81b718	0.063337505
136	0xbd15c82e	-0.03656786
137	0x3cd5943a	0.026071656
138	0x3cb0996d	0.021557534
139	0xbce3de21	-0.02781588
140	0x3e3bb6fb	0.1833152
141	0xbd0b7727	-0.03404918
142	0x3d7c7488	0.06163457
143	0xbc8a25b2	-0.016863678
144	0x3dbfde3a	0.09368558
145	0x3bc55d4d	0.006023085
146	0xbe087cd1	-0.13328864
147	0xbcd671ec	-0.026177369
148	0xbcd14913	-0.02554754
149	0xbe3bd9a2	-0.18344739
150	0x3724a880	9.814394e-06
151	0xbdcac53c	-0.09900901
152	0xbe8cb6bc	-0.27483165
153	0xbd705749	-0.05867699
154	0xbd6f1020	-0.058364987
155	0xbdfbbbd5	-0.122916855
156	0x3c5a10a8	0.013309635
157	0xbde31c41	-0.110893734
158	0x3d362a31	0.04447383
159	0x3d608de2	0.05482281
160	0xbd4c777d	-0.04991864
161	0x3c9e43f6	0.019319516
162	0x3d8eeb79	0.069785066
163	0x3d00a515	0.031407434
164	0x3dbeb510	0.09311879
165	0x3dcee488	0.101021826
166	0x3db3e026	0.08782987
167	0xbd591815	-0.053001482
168	0xbd1611b4	-0.036637977
169	0x3ca978e1	0.020687522
170	0x3d0e270b	0.034705203
171	0x3c983918	0.018581912
172	0xbd8ae42b	-0.06781801
173	0xbd50b711	-0.050955836
174	0x3d7e4970	0.062081754
175	0x3e2c1673	0.16805439
176	0x3e659012	0.2241824
177	0x3e76bf86	0.24096498
178	0xbe0d1592	-0.1377776
179	0xbdc6b876	-0.09703152
180	0xbdc6327b	-0.09677597
181	0xbd848285	-0.06470207
182	0x3d832df8	0.06405252
183	0x3cc088df	0.023502765
184	0xbd07bc0b	-0.033138316
185	0xbe7c8921	-0.24661686
186	0xbdb94362	-0.090460554
187	0xbe2f9d48	-0.17149842
188	0xbc38a9c6	-0.011270946
189	0xbe028dd3	-0.12749414
190	0xbdc2dc04	-0.09514621
191	0x3c2d4533	0.01057558
192	0x3da8b7b8	0.082381666
193	0x3e37d83b	0.17953579
194	0x3c9784d0	0.018495947
195	0xbc577f4d	-0.013152909
196	0xbd9f6ad3	-0.07784047
197	0x3d63c270	0.055605352
198	0xbd316587	-0.043309715
199	0xbd2dd4ab	-0.042439144
200	0x3e7405fb	0.23830406
201	0xbd0eac5d	-0.034832347
202	0x3dba576c	0.09098706
203	0xbd0fcf5b	-0.03510986
204	0xbe4b13dd	-0.19831796
205	0xbd378049	-0.044800077
206	0x3e5a661c	0.21328014
207	0xbe0118c7	-0.12607108
208	0xbcb47c70	-0.022031993
209	0x3d6ff966	0.058587454
210	0x3d8c1ce8	0.06841451
211	0x3d6d1dc1	0.057889704
212	0xbd8df837	-0.06932109
213	0x3d94aeba	0.07259889
214	0x3d145eae	0.036223106
215	0x3d59aaef	0.05314153
216	0x3d95c711	0.073133595
217	0xbc2f4592	-0.010697739
218	0x3de9a760	0.114088774
219	0xbe17ed8e	-0.14836714
220	0xbd8166a3	-0.063184045
221	0x3dc4fdb0	0.096186996
222	0x3cf71129	0.03015955
223	0x3d9c6856	0.07637088
224	0xbda16b76	-0.07881825
225	0xbd986dcd	-0.07442818
226	0xbe0b0638	-0.13576591
227	0xbe00fd53	-0.12596636
228	0x3dd7dbd2	0.10539974
229	0x3db94246	0.09045844
230	0xbe0dc13e	-0.13843247
231	0xbd94a65a	-0.072582915
232	0x3dd06832	0.10176124
233	0x3da5ff1f	0.08105301
234	0x3ac5bd4e	0.0015086324
235	0xbd93bd1c	-0.07213804
236	0xbdf3b36c	-0.118994564
237	0x3dcf7362	0.101294294
238	0x3d7ba97a	0.061440922
239	0xbdf4a44a	-0.11945398
240	0x3dc0f310	0.094213605
241	0x3e34e03f	0.17663668
242	0x3d914c0e	0.070945844
243	0x3db6906d	0.08914266
244	0x3dbd20f8	0.09234804
245	0x3d82a995	0.063800015
246	0xbe34405c	-0.17602676
247	0xbe443e03	-0.1916428
248	0xba82515e	-0.0009942462
249	0xbe50be72	-0.20385149
250	0xbdee45d6	-0.11634414
251	0x3da43ba4	0.08019188
252	0x3cd6c6f3	0.026217913
253	0x3e2e7513	0.17036848
254	0xbdef4626	-0.11683302
255	0xbda67e84	-0.081296

layer1.0.bn2.weight f4 [16]
0	0x3f735ee2	0.95066655
1	0x3f945d4e	1.1590974
2	0x3f671bc5	0.9027675
3	0x3f69693d	0.91176206
4	0x3f9af51c	1.2106051
5	0x3f5da3a3	0.86577815
6	0x3f876887	1.0578774
7	0x3f863187	1.0483865
8	0x3f82eeaf	1.022909
9	0x3f86b5fd	1.0524288
10	0x3f61d726	0.88218915
11	0x3f82bb3a	1.0213387
12	0x3fa163d1	1.2608587
13	0x3f70f5b2	0.941249
14	0x3f7091f0	0.9397268
15	0x3f730670	0.949317

layer1.0.bn2.bias f4 [16]
0	0x3d717299	0.05894718
1	0x3de60e3b	0.11233183
2	0x3dfae7f0	0.1225127
3	0x3c806b69	0.015676217
4	0xbe86df23	-0.26342115
5	0x3ce31a0b	0.02772238
6	0xbce74284	-0.02822996
7	0x3e7b0a36	0.24515614
8	0xbdd26c28	-0.102745354
9	0x3d180fae	0.03712433
10	0x3e8c0058	0.27344012
11	0x3e9d987d	0.30780402
12	0x3ec47732	0.3837219
13	0x3b12211e	0.0022297571
14	0x3e0e02e4	0.1386829
15	0x3dc6e95a	0.09712477

layer1.0.bn2.running_mean f4 [16]
0	0xbeff9543	-0.49918565
1	0xbed911ed	-0.4239649
2	0xbdeed0fa	-0.11660953
3	0xbdbba05e	-0.09161447
4	0xbe39eb32	-0.18156126
5	0xbfbd1d34	-1.4774537
6	0xbf17e21b	-0.59329385
7	0xbf7ae4b2	-0.9800521
8	0xbf8f2e3d	-1.1185986
9	0x3f049ca9	0.51801544
10	0x3f48c072	0.7841865
11	0xbeefd5d4	-0.46842825
12	0xbe914518	-0.28373027
13	0xbe181e23	-0.14855246
14	0x3e39fc67	0.1816269
15	0xbec25951	-0.37958768

layer1.0.bn2.running_var f4 [16]
0	0x3f81919b	1.012256
1	0x3f8bc9df	1.0920981
2	0x3f5933a5	0.8484443
3	0x3f8b2cb4	1.0873017
4	0x3f9cbdcf	1.2245425
5	0x3fa67adc	1.3006244
6	0x3fa0b285	1.255448
7	0x3fbe9bd8	1.489131
8	0x3fa49209	1.2857066
9	0x3ffc463f	1.9708937
10	0x3fc0a433	1.505011
11	0x3fabead9	1.3431045
12	0x3f75fe11	0.960908
13	0x3f161c83	0.58637255
14	0x3f5ae764	0.85509324
15	0x3fc89643	1.5670856

layer1.1.conv1.weight f4 [16, 16, 3, 3]
0	0xbe4827f9	-0.19546498
1	0xbe0dc306	-0.13843927
2	0x3aec1486	0.0018011488
3	0xbe1a2cba	-0.15056124
4	0xbe512de7	-0.20427667
5	0x3e46240c	0.19349688
6	0xbe1e8d5d	-0.15483613
7	0xbdb04899	-0.08607597
8	0x3d156b65	0.036479373
9	0xbd43539b	-0.047687154
10	0xbce12693	-0.027484214
11	0x3bf0b5c2	0.007345886
12	0x3d8f1e4e	0.06988202
13	0xbe516697	-0.20449291
14	0xbd61c828	-0.055122524
15	0xbe2692ac	-0.16266888
16	0xbe30ac83	-0.17253308
17	0x3cc7e5a8	0.0244015
18	0x3c8ef6d8	0.017451689
19	0xbde8547b	-0.11344238
20	0x3d48bfd9	0.049011085
21	0xbd9a5902	-0.07536508
22	0xbdef021b	-0.116703235
23	0x3dca2fa8	0.09872371
24	0xbd9b41fc	-0.07580945
25	0xbd9c910d	-0.07644854
26	0x3d107e16	0.035276495
27	0x3b3e9a7a	0.0029083774
28	0xbdffb649	-0.1248594
29	0xbd63ae40	-0.0555861
30	0x3b885c78	0.0041614138
31	0xbd2b6314	-0.041842535
32	0x3c18dca6	0.00932995
33	0x3e708dd8	0.23491609
34	0x3df20171	0.11816681
35	0xbc9a3c6b	-0.018827638
36	0x3c9ad543	0.01890052
37	0xbda0a9ef	-0.07844912
38	0x3cff3c40	0.03115666
39	0xbd8fad27	-0.07015448
40	0xbdaa7f55	-0.08325068
41	0x3d2c39c7	0.04204729
42	0xbdf0b12e	-0.11752544
43	0xbd29d473	-0.041462373
44	0xbe39d8ba	-0.18149081
45	0xbe30bc46	-0.1725932
46	0xbdeeeb5c	-0.11665985
47	0xbd74f954	-0.05980809
48	0xbcb4f560	-0.02208966
49	0xbe0950c1	-0.13409711
50	0x3e62ad55	0.22136433
51	0x3ddb5883	0.10710242
52	0xbbb3ce88	-0.005487267
53	0x3e0f3349	0.13984407
54	0xbc0edd1a	-0.008719707
55	0xbdca4122	-0.09875704
56	0xbe19ee0a	-0.15032211
57	0x3d5a11f6	0.053239785
58	0xbd2ddab1	-0.04244489
59	0xbd4eb521	-0.050465707
60	0x3e327925	0.17429025
61	0x3d95fb95	0.07323376
62	0xbc90d3b0	-0.017679065
63	0xbcc6d918	-0.02427344
64	0xbe08fcbc	-0.1337766
65	0xbc1e5cd2	-0.009665685
66	0x3d68b5e5	0.056814093
67	0xbda9edb8	-0.082972944
68	0xbe15ce38	-0.14629447
69	0xbbad40f8	-0.005287286
70	0xbe041a3d	-0.12900634
71	0x3d34e364	0.04416217
72	0x3be0b5fe	0.0068576327
73	0xbc5813e7	-0.013188339
74	0xbdc7ae1a	-0.09750004
75	0x3d0ab352	0.03386242
76	0xbd955514	-0.07291618
77	0x3dcd344f	0.10019743
78	0xbca515ac	-0.020151936
79	0x3c994d95	0.018713752
80	0x3c16a1e3	0.00919387
81	0x3e384273	0.17994098
82	0x3dd8ac63	0.10579755
83	0xbd3792ea	-0.044817843
84	0xbb7757b2	-0.003774148
85	0xbe044a66	-0.12919006
86	0xbe1342f5	-0.14381011
87	0xbe2c96f5	-0.1685446
88	0xbda91359	-0.082556434
89	0xbe4feef6	-0.20306
90	0x3e15efc3	0.14642243
91	0xbc0039c9	-0.007826277
92	0xbe0667f1	-0.13125588
93	0x3d8449f8	0.06459421
94	0xbe4f4657	-0.20241676
95	0xbde1fd44	-0.11034635
96	0x3e312533	0.17299347
97	0x3d6c9c76	0.0577664
98	0xbd77de48	-0.06051472
99	0x3e28141e	0.16413924
100	0xbb89362c	-0.004187366
101	0xbe65e677	-0.22451197
102	0x3e170b02	0.14750293
103	0x3d405769	0.04695836
104	0xbe74beeb	-0.23900954
105	0x3ca59b63	0.020215696
106	0xbe51b974	-0.20480901
107	0xbebf3325	-0.37343708
108	0xbd159ad2	-0.0365246
109	0x3d300fb3	0.042983722
110	0xbe55f96c	-0.20895928
111	0xbdc595dc	-0.09647724
112	0x3e348eb0	0.17632556
113	0xbe848eae	-0.25890106
114	0x3db20f6f	0.0869435
115	0xbdbab2a8	-0.09116107
116	0x3db5fdd8	0.088863075
117	0x3d3ab1e5	0.04557981
118	0x3db08803	0.08619692
119	0xbcb96f33	-0.022636032
120	0x3d113016	0.03544625
121	0x3bb8b893	0.0056372373
122	0x3cda1132	0.026619527
123	0xbd3a7144	-0.045518175
124	0x3e0a619d	0.13513799
125	0xbde64b4c	-0.112448305
126	0x3d7ea362	0.062167533
127	0x3d218ba0	0.039439797
128	0xbdaacaf5	-0.08339492
129	0x3de9ad14	0.11409965
130	0xbdef4bc3	-0.11684372
131	0xbe08a8b4	-0.13345605
132	0x3cdd9430	0.0270482
133	0xbe4f352d	-0.20235129
134	0xbb4df968	-0.0031429175
135	0x3d7544fc	0.05988024
136	0xbcf0314f	-0.029320387
137	0xbcaf71c9	-0.021416562
138	0xbe7401c7	-0.23828803
139	0x3e045fa6	0.12927112
140	0x3dce6940	0.100786686
141	0xbd8305aa	-0.06397565
142	0x3e11f23d	0.14252563
143	0x3d60421c	0.054750547
144	0xbdaffc38	-0.08593029
145	0x3d298318	0.041384786
146	0x3e0332d3	0.12812357
147	0x3e3b424b	0.18287008
148	0x3e068cd1	0.13139655
149	0x3d49a2f2	0.049227662
150	0xbe3c42db	-0.18384878
151	0xbe53ae13	-0.20671873
152	0x3ab9fff1	0.0014190656
153	0xbdce4859	-0.10072393
154	0x3e5379f1	0.20651986
155	0x3e43278e	0.19058058
156	0xbdc3b206	-0.0955544
157	0xbe9039f5	-0.28169218
158	0xbea50bb7	-0.322355
159	0xba2769c8	-0.0006386307
160	0x3e741fc9	0.2384025
161	0x3ca67be3	0.020322746
162	0xbc42245f	-0.011849492
163	0x3da0a870	0.07844627
164	0x3de143be	0.10999249
165	0x3bc69bc2	0.0060610482
166	0x3c8adba7	0.016950442
167	0xbdbc84c5	-0.09205011
168	0x3c98d63c	0.018656842
169	0xbcf35e56	-0.029708069
170	0xbd06cce2	-0.032910235
171	0xbade8f5b	-0.0016979979
172	0x3cdd2d3d	0.02699911
173	0xbd32ec2c	-0.043682262
174	0xbe11cc94	-0.14238197
175	0xbd199a2b	-0.03750054
176	0xbddaf5df	-0.106914274
177	0x3dc52709	0.09626586
178	0x3e1fe7b5	0.15615733
179	0xbd8b1c77	-0.067925386
180	0xbdb9918e	-0.090609655
181	0xbce0a69e	-0.0274232
182	0x3c7c2b94	0.015391249
183	0xbd830ba2	-0.06398703
184	0xbe3d1123	-0.18463568
185	0xbe231212	-0.15924862
186	0x3b8a6d74	0.0042244736
187	0x3d2db737	0.042411055
188	0x3d98b84c	0.07457027
189	0xbd42aecb	-0.047529977
190	0x3d512342	0.051059015
191	0xbcdba386	-0.026811372
192	0xbdb61779	-0.08891196
193	0xbc55cb4b	-0.013048957
194	0xbbb6afc9	-0.0055751544
195	0xbcbbcc3a	-0.022924531
196	0x3d97472a	0.0738662
197	0x3cf4e79b	0.029895594
198	0x3e2fd469	0.17170872
199	0x3cba2aab	0.022725424
200	0xbda9a824	-0.082840234
201	0xbe283676	-0.16427025
202	0x3c351282	0.011051776
203	0x3d1c2b36	0.038127147
204	0x3d9f217c	0.077700585
205	0xbd8af94d	-0.067858316
206	0x3ceac825	0.02865989
207	0xbd6f453b	-0.058415633
208	0xbe075dd4	-0.13219386
209	0x3ca833c6	0.0205325
210	0x3e56a0d2	0.20959786
211	0x3e988989	0.2979243
212	0x3e3786cc	0.17922515
213	0xbe05db62	-0.13071969
214	0xbe3cd940	-0.1844225
215	0xbe0def01	-0.13860704
216	0xbe0ce52d	-0.13759299
217	0x3cd52182	0.026016954
218	0x3d691b72	0.05691094
219	0x3d506343	0.050875913
220	0xbd7d309b	-0.061813932
221	0xbe0ea665	-0.13930662
222	0xbd9de57d	-0.07709787
223	0x3e2b0e4b	0.16704671
224	0x3e1dac03	0.15397649
225	0x3c44077f	0.011964678
226	0x3d3a1a87	0.045435455
227	0xbdbf8e67	-0.09353333
228	0xbcdee276	-0.027207594
229	0x3e411117	0.18854176
230	0x3e0cf285	0.13764389
231	0xbe96bba0	-0.29440022
232	0xbe30f018	-0.17279088
233	0xbe34faba	-0.1767377
234	0x3ddea503	0.10871317
235	0x3e615db5	0.22008403
236	0x3e0ac206	0.13550577
237	0xbe6bcdeb	-0.2302777
238	0xbe7dd8ea	-0.24789777
239	0xbe9155a5	-0.28385654
240	0xbd97c540	-0.07410669
241	0x3d9c9e2c	0.076473564
242	0xbcf32374	-0.029679991
243	0x3cfd66a1	0.030932726
244	0xbd418ed8	-0.047255367
245	0xbdeb0b7c	-0.114768
246	0x3d9a934e	0.075476274
247	0x3dcc636c	0.09979901
248	0x3d61ccb2	0.055126853
249	0x3dc753cd	0.097327806
250	0x3d8e7103	0.06955149
251	0xbd3e2fc0	-0.046432257
252	0xbc952c81	-0.018209698
253	0xbd47be63	-0.04876555
254	0xbd949184	-0.072543174
255	0xba5e0291	-0.00084690104

layer1.1.bn1.weight f4 [16]
0	0x3f95b4a6	1.1695755
1	0x3f8cc418	1.0997343
2	0x3f86731b	1.0503877
3	0x3f502653	0.8130848
4	0x3f5d01b3	0.8633072
5	0x3f725956	0.94667566
6	0x3f818bc4	1.0120778
7	0x3f98c24d	1.1934296
8	0x3f805811	1.0026876
9	0x3f8835e9	1.0641452
10	0x3f61a0c3	0.8813593
11	0x3f56e2f0	0.8394003
12	0x3f9d87d0	1.2307072
13	0x3f5ea5be	0.8697165
14	0x3f7d0258	0.988317
15	0x3f70a750	0.940053

layer1.1.bn1.bias f4 [16]
0	0x3cbb37e6	0.022853803
1	0xbe66b154	-0.22528583
2	0xbe98b257	-0.29823563
3	0xbe8aec83	-0.2713357
4	0xbc60c9b4	-0.013719965
5	0x3d4b9a2c	0.049707577
6	0xbe26bff2	-0.16284159
7	0xbe50b59a	-0.20381775
8	0xbda3e491	-0.0800258
9	0xbdf7e18a	-0.12103565
10	0xbe801cc4	-0.25021946
11	0xbdc8abcb	-0.09798392
12	0x3df9f8ca	0.12205656
13	0xbe72e09f	-0.23718499
14	0xbd14e16e	-0.0363478
15	0xbe2f217d	-0.17102619

layer1.1.bn1.running_mean f4 [16]
0	0xc0507ed5	-3.2577412
1	0xbecf7941	-0.40522197
2	0xbfc852ef	-1.5650309
3	0xbcd67b7a	-0.026181925
4	0xbf210d68	-0.6291108
5	0xbffae73d	-1.9601818
6	0xc029e018	-2.6543026
7	0xbf5c405a	-0.8603569
8	0x3f12eb0c	0.57389903
9	0xc0039483	-2.0559394
10	0xc041e35b	-3.0295017
11	0x3ee2a652	0.44267517
12	0xc02d3076	-2.7060828
13	0xc0070ae5	-2.11004
14	0xc048532f	-3.1300771
15	0xc00cce5e	-2.2000957

layer1.1.bn1.running_var f4 [16]
0	0x40b5e21f	5.6838527
1	0x40d79b19	6.737683
2	0x4033c0bc	2.8086386
3	0x4023a892	2.5571637
4	0x404b5633	3.1771362
5	0x4075daa7	3.8414705
6	0x40be5a2f	5.9485087
7	0x4076b57d	3.8548272
8	0x4094e148	4.6525
9	0x40b262ab	5.5745444
10	0x40128f2d	2.2899888
11	0x40427389	3.0383017
12	0x40cca1c5	6.3947473
13	0x4069a618	3.6507626
14	0x409eca07	4.9621615
15	0x40685700	3.63031

layer1.1.conv2.weight f4 [16, 16, 3, 3]
0	0x3dcd6883	0.100297
1	0x3e69be53	0.22826509
2	0xbda25fad	-0.07928405
3	0x3da078d8	0.07835549
4	0x3d05b32a	0.032641567
5	0xbe2c4ebf	-0.16826914
6	0xbd072f5f	-0.03300416
7	0xbcaf5981	-0.021404983
8	0xbe3631c6	-0.17792425
9	0xbd8380c3	-0.06421044
10	0xbd275529	-0.0408527
11	0x3c4d0593	0.012513536
12	0xbc3da021	-0.011573822
13	0x3c119591	0.008885757
14	0xbd26c08e	-0.04071098
15	0xbc70de2d	-0.014701408
16	0x3d9af209	0.07565696
17	0x3cc01ea2	0.023452107
18	0xbe06c49d	-0.1316094
19	0xbdfa787c	-0.12230012
20	0x3ccb0fc8	0.024787799
21	0xbd1da129	-0.038483772
22	0x3c7e4195	0.015518566
23	0x3df3ceaa	0.119046524
24	0xbd8b84fd	-0.06812475
25	0x3d2e4461	0.04254568
26	0x3dadf78f	0.08494484
27	0xbcd9d40e	-0.026590373
28	0xbdc4c1b8	-0.096072614
29	0xbdf24910	-0.11830342
30	0xbdcf43b9	-0.10120339
31	0xbdfd5cfe	-0.123712525
32	0xbe7eb88e	-0.2487509
33	0xbd89abdb	-0.06722232
34	0xbd8bbc2f	-0.068230025
35	0xbd6e1f32	-0.05813522
36	0x3db41daa	0.087947205
37	0x3e25db5a	0.16196957
38	0x3d4c9cd0	0.049954236
39	0x3d194032	0.037414737
40	0x3e1e676b	0.15469138
41	0x3ceee2ae	0.029160824
42	0x3c73708e	0.014858378
43	0x3dcb1ccb	0.09917601
44	0xbc9cbfd1	-0.019134434
45	0x3d9ab694	0.07554355
46	0x3cc0ce10	0.023535758
47	0xbe25b601	-0.1618271
48	0x3e04bbfc	0.12962335
49	0xbdbd44c6	-0.09241633
50	0xbe6b47dc	-0.22976631
51	0x3e08587b	0.13315003
52	0xbd97c26c	-0.0741013
53	0xbe4e2458	-0.20131052
54	0x3e40c0ba	0.1882352
55	0xbd8e3367	-0.06943398
56	0xbe68ccac	-0.22734326
57	0x3e480ab8	0.19535339
58	0xbe10f2e5	-0.14155157
59	0xbe8966b2	-0.26836163
60	0x3d11af07	0.03556731
61	0xbdcb270d	-0.09919558
62	0xbddabf8b	-0.10681065
63	0x3e0d6d36	0.13811192
64	0x3d4d7f0d	0.050169993
65	0xbe278eaf	-0.16363023
66	0x3e31e817	0.17373691
67	0x3db04ccb	0.08608397
68	0xbe60e6fe	-0.21963117
69	0x3b922a24	0.00446059
70	0x3d2a2570	0.04153961
71	0x3ca5ce58	0.020239994
72	0x3e697d0c	0.22801608
73	0x3de6ac53	0.11263337
74	0xbcbd52ff	-0.023110865
75	0x3e497c96	0.19676432
76	0x3c8e1826	0.0173455
77	0xbdfcbfe7	-0.1234129
78	0xbd107b9d	-0.035274137
79	0xbc8a9d83	-0.01692081
80	0xbd93e627	-0.072216325
81	0xbe24d986	-0.16098604
82	0xbda4fc8b	-0.08055981
83	0x3db27d27	0.08715277
84	0xbe4549d1	-0.1926644
85	0xbaa7e7d0	-0.0012810174
86	0x3e0fd9a7	0.14047872
87	0xbe6591de	-0.22418925
88	0xbcb76608	-0.02238752
89	0x3d83b689	0.064313
90	0x3bdcd681	0.006739438
91	0xbc9ec14d	-0.019379282
92	0xbd88e619	-0.06684513
93	0x3de2b3cb	0.11069449
94	0x3c49910a	0.012302646
95	0xbe738682	-0.2378178
96	0xbcb74fc3	-0.0223769
97	0xbcfe76be	-0.03106248
98	0xbdd222a8	-0.102605164
99	0xbd5f311f	-0.054490205
100	0xbc53ee20	-0.012935191
101	0xbd124938	-0.035714358
102	0xbd02765d	-0.03185116
103	0xbc6e01ff	-0.014526843
104	0xbe15232b	-0.14564197
105	0xbe29da3c	-0.16587156
106	0xbdc46a89	-0.095906325
107	0xbe189544	-0.1490069
108	0xbd7133a1	-0.058887128
109	0x3d3f6d9a	0.046735384
110	0x3d3f7dd2	0.04675085
111	0xbe55fe72	-0.20897844
112	0x3d8c5b77	0.06853383
113	0x3e5547b5	0.20828135
114	0xbc8243a7	-0.0159014
115	0x3e37c971	0.17947938
116	0x3dacee9c	0.084439486
117	0x3db3383e	0.08750962
118	0xbdd3724d	-0.103245355
119	0x3de3e9b4	0.1112856
120	0x3e04b96b	0.12961356
121	0x3d838a6c	0.06422886
122	0x3e17cb08	0.14823544
123	0x3d5558e5	0.05208673
124	0xbbe7aba7	-0.007070023
125	0x3c6c14f6	0.014409294
126	0x3d5ce682	0.053930767
127	0x3d2495c9	0.04018191
128	0x3b9418eb	0.004519572
129	0x3c61de66	0.013785934
130	0x3d07aee7	0.033125784
131	0xbd2bab27	-0.04191127
132	0xbd9eade1	-0.077480085
133	0xbe0a6231	-0.1351402
134	0xbe2607b6	-0.16213879
135	0xbb4f159f	-0.003159858
136	0x3d9bc2d3	0.07605519
137	0xbdbfc37a	-0.09363456
138	0xbc1812e3	-0.009281847
139	0xbe11f1a7	-0.1425234
140	0xbc433598	-0.011914633
141	0xbdb48964	-0.08815268
142	0xbe693be4	-0.22776753
143	0xbe5acbd4	-0.21366817
144	0xbe15843c	-0.14601225
145	0x3d2f3f7d	0.042785157
146	0x3d14519e	0.03621065
147	0xbda6896a	-0.081316784
148	0xbeae1f5c	-0.340083
149	0x3b20ae61	0.0024518
150	0x3e39b8c8	0.18136895
151	0x3c3da85a	0.011575783
152	0xbe8ab5ed	-0.27091923
153	0xbdfcddc0	-0.12346983
154	0x3d7d374f	0.061820325
155	0x3da59c7a	0.08086486
156	0xbcd7657e	-0.026293512
157	0xbd27e8ca	-0.04099349
158	0x3cd14b21	0.02554852
159	0x3c82a16d	0.015946114
160	0xbdbf38fa	-0.09337039
161	0xbe4d0933	-0.2002304
162	0x3db5afad	0.08871398
163	0x3e2f5d96	0.17125544
164	0x3e2314cc	0.15925902
165	0xbd7c5eb4	-0.061613753
166	0x3e63fef1	0.22265221
167	0x3e89b298	0.2689407
168	0x3d197c23	0.0374719
169	0xbd0ab791	-0.03386647
170	0x3d88312f	0.06650006
171	0xbc9f3483	-0.01943422
172	0x3dc1ce75	0.09463207
173	0xbdd77818	-0.10520953
174	0xbd4ee2a4	-0.05050911
175	0xbcdb169a	-0.026744176
176	0xbd1b532f	-0.037921127
177	0x3c991782	0.018687967
178	0x3c610748	0.013734646
179	0xbcc0ac64	-0.023519702
180	0xbdde4658	-0.10853261
181	0xbddf421c	-0.10901281
182	0x3cb8b703	0.022548204
183	0x3e03a7b5	0.12856944
184	0xbbcaa222	-0.0061838785
185	0xbe1a005d	-0.15039201
186	0x3e630609	0.22170271
187	0x3d387c0d	0.04504018
188	0xbc473905	-0.012159591
189	0x3ae8a986	0.0017750717
190	0x3dde8745	0.10865644
191	0xbcc1cddc	-0.023657732
192	0xbe00926e	-0.12555858
193	0xbe10f0bf	-0.14154337
194	0xbdb1a6ac	-0.08674368
195	0xbd93d9c7	-0.07219272
196	0xbdc0a628	-0.09406692
197	0xbe92b3a5	-0.28652683
198	0xbd1401e1	-0.036134604
199	0xbe3ae45b	-0.18251173
200	0x3b7cdefb	0.0038585055
201	0x3d940d7a	0.07229133
202	0x3de8a22c	0.11359057
203	0xbcc48c96	-0.023992818
204	0x3d956e7a	0.07296462
205	0x3daf3886	0.08555703
206	0x3e511c47	0.20420943
207	0x3df91859	0.12162847
208	0x3e09e4b9	0.13466157
209	0xbc93ad4f	-0.018026976
210	0x3e1816fc	0.14852518
211	0x3f0e50d8	0.5559211
212	0x3e2eb992	0.17062977
213	0x3e182b08	0.14860165
214	0x3e39da9a	0.18149796
215	0xbb0d0da6	-0.0021523028
216	0xbc7f2a5a	-0.015574062
217	0x3c06b5b3	0.008222031
218	0xbb08c48f	-0.0020869111
219	0x3cc848cb	0.024448773
220	0xbb0859a5	-0.0020805385
221	0xbdb0df85	-0.08636383
222	0x3d95122d	0.072788574
223	0xbcdec80b	-0.027194997
224	0xbcf7c3ee	-0.030244794
225	0xbda58f42	-0.08083965
226	0xbe7c91aa	-0.24664941
227	0xbc2b650b	-0.010461102
228	0x3d1a6999	0.037698362
229	0xbd00311c	-0.031296834
230	0xbddbd6ee	-0.10734354
231	0xbe23b8b8	-0.15988433
232	0x3c95db16	0.018292945
233	0xbdb1b7db	-0.08677646
234	0x3d2a3d8f	0.041562613
235	0xbcb9aefb	-0.022666445
236	0xbe083399	-0.13300933
237	0x3dfa00e2	0.122072
238	0x3e4b3157	0.1984304
239	0xbd1c080c	-0.03809361
240	0xbb76c7ad	-0.0037655637
241	0x3e36e39f	0.17860268
242	0x3e0ba913	0.13638715
243	0x3b98ad6e	0.0046593463
244	0x3c78edac	0.015193384
245	0x3d5a8adb	0.05335508
246	0xbb61a6d8	-0.0034431722
247	0x3d0edb76	0.034877263
248	0x3b7f54b7	0.0038960406
249	0x3c634d5c	0.013873424
250	0xbc411626	-0.011785066
251	0x3d37086e	0.044685774
252	0xbd8d53fa	-0.06900783
253	0xbe8eaf05	-0.27867904
254	0x3bfd1d85	0.0077244663
255	0x3e48e176	0.19617257

layer1.1.bn2.weight f4 [16]
0	0x3f8d50d9	1.1040298
1	0x3f94e7f8	1.1633291
2	0x3f765efc	0.96238685
3	0x3f451e36	0.76999223
4	0x3f83c8d2	1.029566
5	0x3f7f683b	0.9976842
6	0x3f88c735	1.0685793
7	0x3f770cc9	0.96503884
8	0x3f553175	0.8327859
9	0x3f6e9419	0.9319473
10	0x3f93b1cd	1.1538635
11	0x3f6e03cf	0.9297456
12	0x3f8f6800	1.1203613
13	0x3f8e29bc	1.1106486
14	0x3f6daba9	0.9284006
15	0x3f59381d	0.8485125

layer1.1.bn2.bias f4 [16]
0	0xbd17dfa0	-0.0370785
1	0xbdf94655	-0.12171618
2	0x3eb41fe8	0.35180593
3	0x3e2519be	0.16123101
4	0x3ca89784	0.02058006
5	0x3e5be1d6	0.21472868
6	0x3e853b56	0.26021832
7	0x3e9dcbc3	0.3081952
8	0x3ec90efd	0.39269248
9	0x3ed4fa78	0.41597342
10	0x3e798d3b	0.24370281
11	0xbdb033ee	-0.08603655
12	0x3d8fe115	0.07025353
13	0x3dd43d62	0.1036327
14	0x3cef607f	0.029220818
15	0x3ea3bed6	0.31981534

layer1.1.bn2.running_mean f4 [16]
0	0xbf14220b	-0.57864445
1	0xbd8ccb6b	-0.068747364
2	0x3fc5e25f	1.5459708
3	0xbe16700f	-0.14691184
4	0xbe3050d8	-0.1721834
5	0xbd051663	-0.032492053
6	0xbe9498de	-0.29022878
7	0xbfd21290	-1.6411915
8	0xbef4b755	-0.4779612
9	0xbdd904aa	-0.10596593
10	0xbfa3ba6a	-1.2791264
11	0x3fb1e992	1.3899405
12	0x3ef4c099	0.4780319
13	0xbfc3e278	-1.5303488
14	0x3f89a524	1.0753522
15	0xbebfcecd	-0.37462464

layer1.1.bn2.running_var f4 [16]
0	0x3fa4f69c	1.2887759
1	0x3f678b62	0.90447056
2	0x3f983c96	1.1893489
3	0x3f606493	0.87653464
4	0x3f0f1e3f	0.55905527
5	0x3fb68ec5	1.426232
6	0x3fa732ac	1.3062339
7	0x3f8b9827	1.0905808
8	0x3f8361eb	1.0264257
9	0x3f9b602a	1.2138722
10	0x3f9a600b	1.206056
11	0x3f563ae0	0.83683586
12	0x3f3577db	0.7088601
13	0x3f94c2f8	1.1622
14	0x3f3d6589	0.73983055
15	0x3f4627e6	0.7740463

layer2.0.conv1.weight f4 [32, 16, 3, 3]
0	0xbc8ceb5f	-0.017202077
1	0xbe2e674d	-0.17031594
2	0x3ccb471b	0.02481418
3	0xbdd66cc4	-0.10469964
4	0x3da49db2	0.080378905
5	0x3d2a7203	0.041612636
6	0x3d00a828	0.031410366
7	0x3d5eed39	0.054425452
8	0xbd3902f1	-0.04516882
9	0xbd60da18	-0.05489549
10	0xbe5ee14f	-0.21765636
11	0x3ab1ac82	0.001355544
12	0xbdf5943e	-0.119911656
13	0xbd541b63	-0.05178393
14	0x3d12bc39	0.035824034
15	0x3d3a6584	0.04550697
16	0xbcf99ae2	-0.030469362
17	0x3d092e1d	0.033491243
18	0xbe45af56	-0.19305167
19	0xbde4beac	-0.1116918
20	0x3e0c91b3	0.13727455
21	0xbd6ef92e	-0.058343105
22	0x3e11d59c	0.14241642
23	0x3d664264	0.05621566
24	0xbd6502ab	-0.055910747
25	0x3e0ec628	0.13942778
26	0xbd00914d	-0.03138857
27	0x3c07b3eb	0.008282642
28	0x3ce01d77	0.0273578
29	0x3c315dfa	0.010825628
30	0x3e0f3195	0.13983758
31	0x3db4c644	0.08826879
32	0xbda2f98f	-0.07957756
33	0x3df3c229	0.119022675
34	0x3c52dec1	0.0128704915
35	0xbdb28a03	-0.0871773
36	0xbe2d51f4	-0.16925794
37	0x3e5b672b	0.21426074
38	0x3dfe3b17	0.12413614
39	0xbd93b8d4	-0.072129875
40	0x3e24085e	0.16018817
41	0x3c1d51b4	0.009601999
42	0x3d91a297	0.0711109
43	0xbdb94aca	-0.09047468
44	0x3dda56d9	0.10661096
45	0xbdec6971	-0.11543549
46	0xbd08fb73	-0.033442926
47	0x3e3ee50e	0.18642065
48	0xbd4b91a5	-0.049699444
49	0x3e019fe7	0.12658654
50	0x3e0d0f5c	0.1377539
51	0x3d44c8fc	0.048043236
52	0x3e34472c	0.17605275
53	0xbe193f26	-0.14965495
54	0x3c3a2d90	0.011363402
55	0x3c2f12f3	0.01068567
56	0xbe7f0c9e	-0.24907157
57	0x3e4f7522	0.20259526
58	0xbe15d19b	-0.1463074
59	0xbe373684	-0.1789189
60	0x3da487d7	0.08033722
61	0x3cb150f2	0.021645043
62	0xbcd63800	-0.02614975
63	0xbe64f188	-0.22357762
64	0x3ce800f3	0.028320765
65	0x3da3f5c4	0.080058604
66	0xbe09c066	-0.134523
67	0x3e2815e4	0.164146
68	0x3e2338eb	0.15939681
69	0xbbedbce6	-0.0072551845
70	0x3d1b438b	0.03790621
71	0x3dc458d9	0.09587259
72	0xbe198b66	-0.14994583
73	0xbdc8401d	-0.09777854
74	0xbdd90b89	-0.10597903
75	0x3e083129	0.13300003
76	0x3bf3b50a	0.007437353
77	0xbd533465	-0.05156364
78	0x3d8b0dbf	0.06789731
79	0x3d55db32	0.052210994
80	0x3d86c585	0.065806426
81	0xbe0a966e	-0.13533947
82	0xbca6fa9c	-0.020383172
83	0x3d9e74ca	0.077371195
84	0xbcb600c0	-0.022217155
85	0xbc91b8d1	-0.017788323
86	0x3d4670d6	0.048447452
87	0xbc8bf741	-0.017085673
88	0x3c8c452b	0.017122826
89	0xbd2d0860	-0.042244315
90	0x3b980ca7	0.00464018
91	0xbdbcb209	-0.09213645
92	0x3927c561	0.0001599989
93	0xbd8c0493	-0.0683681
94	0x3d02d548	0.031941682
95	0x3e01d9cb	0.12680738
96	0xbe3ce676	-0.18447289
97	0xbd23d0d9	-0.039994095
98	0x3dd3e116	0.10345666
99	0x3e8246cd	0.25444642
100	0x3ed2b15b	0.41150936
101	0x3a919b24	0.0011108858
102	0x3ea0feea	0.31444484
103	0xb986ab10	-0.00025685923
104	0xbcc1ff62	-0.023681346
105	0x3e129c21	0.14317371
106	0xbd9d2f8d	-0.07675085
107	0x3e15e650	0.14638638
108	0x3e19576c	0.14974755
109	0x3e3e704f	0.1859753
110	0xbda1c686	-0.078991935
111	0x3e2ba372	0.16761568
112	0xbe2b335d	-0.16718812
113	0x3dfa2d77	0.12215703
114	0x3c5394a0	0.012913853
115	0x3dd0b9c8	0.10191685
116	0x3d2062ae	0.03915661
117	0xbd3af4f5	-0.045643765
118	0xbda47518	-0.08030146
119	0x395f276e	0.00021281626
120	0xbd489e35	-0.048979003
121	0x3c70c1a8	0.014694609
122	0xbe2cd924	-0.16879708
123	0xbdcadcdd	-0.099054076
124	0xbe29919f	-0.16559456
125	0xbd1ba4e3	-0.037999045
126	0x3e619cd5	0.22032483
127	0xbdb05526	-0.08609991
128	0xbdd46b8c	-0.103720754
129	0x3cf553a9	0.029947119
130	0x3d341327	0.043963578
131	0xbd49c2fe	-0.049258225
132	0x3d84175c	0.06449768
133	0xbd6d9969	-0.05800763
134	0xbd052d55	-0.032513935
135	0xbc00fdcd	-0.007873011
136	0x3d1fd8de	0.03902518
137	0x3df649c6	0.1202579
138	0x3d2a7614	0.041616514
139	0x3cdae88f	0.02672222
140	0x3db3e540	0.0878396
141	0x3da66f0c	0.08126649
142	0xbc9398ad	-0.018017137
143	0x3cf398fd	0.029736036
144	0xbce202ed	-0.027589286
145	0x3d2bed80	0.041974545
146	0x3d324881	0.043526176
147	0xbdf65eed	-0.120298244
148	0xbe0473f4	-0.12934858
149	0xbe194ce8	-0.14970744
150	0xbe053680	-0.13009071
151	0xbe455c51	-0.19273497
152	0xbe1631a7	-0.14667378
153	0xbdff99fc	-0.12480542
154	0xbd93cac4	-0.07216409
155	0x3db046bd	0.08607242
156	0x3da84b3e	0.08217476
157	0xbc0747ce	-0.008256866
158	0xbe3f330a	-0.18671814
159	0x3d5c0162	0.053712256
160	0x3e277833	0.16354446
161	0x3e1b7bdc	0.15183967
162	0x3b061895	0.002046143
163	0xbcdb9925	-0.026806423
164	0xbd26dc4b	-0.04073743
165	0xbccca8ec	-0.024982892
166	0xbccfc55b	-0.025362661
167	0x3d4dd42f	0.050251182
168	0xbcf1cfe1	-0.02951807
169	0x3dec52b1	0.1153921
170	0xbcaae0b9	-0.02085911
171	0xbc301a62	-0.010748478
172	0x3a8671f7	0.0010257353
173	0x3e1e8336	0.1547974
174	0x3ce20442	0.02758992
175	0x3dd0cbde	0.101951346
176	0x3e71646f	0.23573469
177	0x3d2c25e4	0.042028323
178	0xbd6572f9	-0.05601785
179	0x3e2075f4	0.15669996
180	0x3d9bb48d	0.07602797
181	0x3d407ed9	0.04699597
182	0x3cb12503	0.021624094
183	0xbb03cae7	-0.0020109953
184	0x3e35f033	0.1776741
185	0x3d8696d1	0.06571735
186	0xbd51c885	-0.05121662
187	0x3d9a2dc4	0.0752826
188	0x3d421831	0.047386352
189	0x3d4c7ce6	0.0499238
190	0xbcee767a	-0.029109228
191	0xbe3383bb	-0.1753072
192	0x3e06c8f7	0.131626
193	0x3d4f4e3e	0.050611727
194	0xbcd9a323	-0.026567047
195	0x3e2156ba	0.1575574
196	0x3d8c7b6c	0.06859478
197	0x3dad8cd9	0.0847413
198	0x3d72f25b	0.05931316
199	0x3b9b9655	0.0047481456
200	0x3dce4163	0.10071065
201	0xbddee5f1	-0.108837016
202	0xbd6541f7	-0.055971112
203	0xbbc610cd	-0.0060444833
204	0xbe11ec71	-0.14250351
205	0xbe718474	-0.23585683
206	0xbe578f62	-0.2105079
207	0x3d5c6175	0.05380388
208	0xbdc293a7	-0.09500819
209	0xbe5810dd	-0.21100183
210	0x3e12fc21	0.14353992
211	0x3d114bde	0.035472743
212	0xbdf4301d	-0.119232394
213	0x3dd4433d	0.10364387
214	0x3ddf849a	0.109139636
215	0x3d3d805e	0.046265
216	0xbdf78631	-0.12086142
217	0xbd69643f	-0.056980368
218	0x3bdf2ee6	0.0068110107
219	0xbded5c67	-0.1158989
220	0xbe75bc75	-0.23997672
221	0xbe4a335c	-0.19746155
222	0xbe404914	-0.18777877
223	0xbd9ac8ed	-0.07557855
224	0xbe32ceb1	-0.17461659
225	0x3dcd12df	0.10013365
226	0x3e58bd11	0.21165873
227	0x3e2d5daf	0.16930269
228	0xbe28f574	-0.16499883
229	0xbc177a8f	-0.009245529
230	0x3dcc0b7b	0.09963127
231	0x3cbff77a	0.023433436
232	0xbe2acb80	-0.16679192
233	0xbe3d87d3	-0.18508844
234	0xbd1c60bb	-0.038178187
235	0xbd97d363	-0.07413366
236	0xbd41ab26	-0.04728236
237	0x3d9c4fff	0.076324455
238	0xbdffd12f	-0.124910705
239	0xbe82554d	-0.25455704
240	0x3d847f3f	0.06469583
241	0x3b7d2c0e	0.0038630995
242	0x3d30986c	0.04311411
243	0x3c6fbbf5	0.014632215
244	0x3acc56cb	0.0015589831
245	0xbd3cbf90	-0.046081126
246	0x3e0cfb79	0.13767804
247	0x3cdc7e5b	0.02691572
248	0x3ddd971c	0.108198375
249	0xbd967904	-0.07347301
250	0xbd8d4748	-0.068983614
251	0xbd0f1db0	-0.03494042
252	0xbcc3b590	-0.023890287
253	0xbdcde01c	-0.10052511
254	0xbe593c7c	-0.21214479
255	0xbe113b07	-0.14182673

layer2.0.bn1.weight f4 [32]
0	0x3f7936cd	0.97349244
1	0x3f7925df	0.9732341
2	0x3f897823	1.0739788
3	0x3f818ff9	1.0122062
4	0x3f896223	1.0733074
5	0x3f782137	0.9692568
6	0x3f806099	1.0029479
7	0x3f7cfbf9	0.9882198
8	0x3f717f21	0.9433461
9	0x3f636e5f	0.8884029
10	0x3f883034	1.063971
11	0x3f649852	0.8929492
12	0x3f77c3ec	0.9678333
13	0x3f85ba24	1.0447431
14	0x3f65ca0b	0.8976142
15	0x3f8bbe0c	1.0917373
16	0x3f820c96	1.0160091
17	0x3f77fdb7	0.96871513
18	0x3f768c47	0.96307796
19	0x3f7e2d3a	0.9928776
20	0x3f831a67	1.0242432
21	0x3f96383c	1.1735911
22	0x3f96902b	1.1762747
23	0x3f69efb1	0.91381365
24	0x3f75fc64	0.9608824
25	0x3f80af5a	1.0053513
26	0x3f64216c	0.891135
27	0x3f8491b9	1.0356971
28	0x3f8dba5b	1.1072496
29	0x3f807f02	1.003876
30	0x3f77a8dd	0.9674204
31	0x3f835f18	1.0263395

layer2.0.bn1.bias f4 [32]
0	0xbdaa8037	-0.08325236
1	0xbd238e31	-0.039930526
2	0xbe34cf9c	-0.17657322
3	0xbe7e20b9	-0.2481717
4	0xbcfa60c4	-0.03056372
5	0xbd58a230	-0.05288905
6	0xbda2b651	-0.0794493
7	0xbde15530	-0.11002576
8	0xbdc9793f	-0.09837579
9	0x3d96618f	0.073428266
10	0x3e239779	0.15975751
11	0x3d69442c	0.05694978
12	0xbdf7c48c	-0.12098035
13	0xbd400fe3	-0.04689015
14	0xbdb830f5	-0.08993713
15	0xbdddc721	-0.108289964
16	0xbd2518ae	-0.04030674
17	0xbd2e1d38	-0.042508334
18	0x3e354b71	0.1770456
19	0xbdd6a1a4	-0.10480049
20	0xbde0b16d	-0.10971341
21	0xbe109d26	-0.14122447
22	0xbe0ec904	-0.13943869
23	0xbe78d3fc	-0.24299616
24	0xbd422032	-0.047393985
25	0xbe40660a	-0.18788925
26	0x3e5514b0	0.20808673
27	0x3e39185f	0.18075703
28	0xbc75cbaa	-0.015002171
29	0xbd28fa66	-0.041254424
30	0x3dacffbc	0.08447215
31	0xbdbf21cf	-0.0933262
