任务一-图片分类/cifar_net.pth (torch, 251604 bytes, 10 tensors)

conv1.weight f4 [6, 3, 5, 5]
0.3870168 -0.35941118 0.015125799 -0.055094123 -0.008046271 -0.016534615 -0.46650186 0.3615915
0.12197979 -0.1694427 -0.26911235 -0.5421442 0.677269 0.3610193 -0.25922298 -0.18339989
-0.65272915 0.7369497 0.37399897 -0.19290143 0.118178554 -0.32546628 0.28220212 0.11867646
-0.120718345 0.11277655 -0.30637306 0.16327119 -0.06548623 0.25699767 -0.14859578 -0.6032136
0.48152086 0.1774829 0.03579086 -0.43768156 -0.6468837 0.87573624 0.2608695 -0.03679498
-0.3645908 -0.60743374 0.60522294 0.3217533 -0.22072075 -0.038095225 -0.3757866 0.31327567
0.121257894 -0.03719561 0.040325865 -0.20763335 0.17179482 -0.013703263 0.024713555 -0.16995266
-0.38785285 0.45004517 0.1960457 -0.117763095 -0.31539673 -0.45708022 0.7400732 0.30837002
-0.30381852 -0.16717726 -0.63341403 0.7596004 0.24713333 -0.2800854 0.12162073 -0.3363233
0.2540696 0.1395943 -0.034822524 -0.14328621 -0.12807906 -0.15729606 -0.16998471 -0.12799786
-0.33099705 -0.6092859 -0.55283016 -0.3605561 0.014251871 -0.16279048 -0.380505 -0.16650857
0.13166569 0.1292449 0.21170643 0.43526295 0.6222202 0.3769457 0.06145543 0.29500705
0.29411206 0.44594574 0.25251955 0.23405695 0.18090469 0.17393957 0.11243905 0.00521456
0.020275375 -0.13589825 -0.30688563 -0.45889017 -0.289332 0.19933365 -0.22396314 -0.40425408
-0.25055993 -0.029562782 -0.024430642 -0.09574611 0.36037454 0.3853542 0.24208695 -0.17974316
-0.06769372 0.15597773 0.15170859 0.034916528 -0.26946694 0.1829432 0.26058775 0.23892759
0.1290035 0.16082089 0.018466178 -0.25968322 -0.42584297 -0.13884987 0.36575124 -0.15099041
-0.29755214 -0.27951756 0.07849017 0.20095502 -0.15907928 0.29131347 0.4284425 0.29351297
-0.052111823 -0.029506646 -0.015776096 0.059993573 0.036088083 -0.16309355 0.029618934 -0.0506207
-0.03729617 0.042771846 0.17468911 -0.11727068 -0.046377525 -0.15816393 -0.039518908 -0.0011035675
-0.20066723 -0.39169964 -0.118747935 -0.11180476 -0.14205194 -0.26218337 -0.37009156 -0.34772834
-0.12183407 -0.0635237 -0.37789297 -0.36446115 -0.2382095 -0.14384626 -0.01755999 -0.34045026
-0.22615486 -0.09210687 -0.064756274 -0.017851438 -0.029410638 0.06295994 0.02994707 -0.022308186
-0.06366905 -0.0111796735 0.100353055 0.047415033 0.05240445 -0.040047955 -0.08648879 0.17100468
0.1373729 0.14268802 -0.16703798 -0.117743805 -0.006678189 0.0107154045 0.04007563 -0.049951352
-0.027710825 0.048077546 -0.032105364 0.061864827 -0.005602534 0.3688502 0.31614435 0.41066322
0.2174584 -0.028661279 0.21031946 0.4860058 0.39899766 0.25095865 -0.01576447 0.3436061
0.3871779 0.3408226 0.22571656 0.036771093 0.2147188 0.26592273 0.17740683 0.31919488
-0.08311954 -0.16643544 -0.076566525 0.05530219 -0.029460166 -0.1278716 -0.13995923 -0.03259266
-0.0030039984 0.027483813 0.075105496 0.0014788535 0.0643248 0.10749821 0.103456914 0.09578583
0.095637605 0.082667075 0.15188394 0.16774781 0.25773558 0.09824182 0.14505576 0.12711166
0.11279291 0.20357193 -0.06881558 0.009969139 -0.033702593 0.010923894 -0.090411074 -0.11267619
00000000: 1127 c63e be04 b8be 33d2 773c 60aa 61bd
00000010: 82d4 03bc 9a73 87bc 55d9 eebe 8522 b93e
00000020: 8ad0 f93d 6382 2dbe 18c9 89be f6c9 0abf
00000030: 8061 2d3f 86d7 b83e e0b8 84be 2ecd 3bbe
00000040: 4219 27bf bca8 3c3f cb7c bf3e f487 45be
00000050: 9907 f23d 84a3 a6be cc7c 903e a50c f33d
00000060: 2e3b f7bd 64f7 e63d eedc 9cbe 9030 273e
00000070: a51d 86bd 3395 833e 7e29 18be 356c 1abf
00000080: e789 f63e 14be 353e 7099 123d cc17 e0be
00000090: 2c9a 25bf 4030 603f b090 853e 55b6 16bd
000000a0: a5ab babe c780 1bbf e4ef 1a3f d9bc a43e
000000b0: 9f04 62be bd09 1cbd 1a67 c0be ab65 a03e
000000c0: 0f56 f83d 6d5a 18bd bc2c 253d d69d 54be
000000d0: fbea 2f3e a783 60bc 1574 ca3c 1208 2ebe
000000e0: a694 c6be 526c e63e 34c0 483e c72d f1bd
000000f0: ae7b a1be 6b06 eabe 7075 3d3f ade2 9d3e
00000100: 1a8e 9bbe 8430 2bbe 6c27 22bf 2c75 423f
00000110: 8510 7d3e 5b67 8fbe 4a14 f93d 9132 acbe
00000120: 6915 823e cff1 0e3e 10a2 0ebd 9fb9 12be
00000130: 2827 03be 3812 21be 7910 2ebe df11 03be
00000140: 7278 a9be 29fa 1bbf 4786 0dbf cf9a b8be
00000150: ae80 693c 8cb2 26be 8dd1 c2be 3981 2abe
00000160: 5fd3 063e c658 043e 92c9 583e c9da de3e
00000170: d349 1f3f 07ff c03e b0b8 7b3d 2a0b 973e
00000180: db95 963e 0053 e43e 3e4a 813e a0ac 6f3e
00000190: 143f 393e 371d 323e 7246 e63d e6de aa3b
000001a0: 8b18 a63c e928 0bbe 1d20 9dbe a7f3 eabe
000001b0: 5323 94be 1f1e 4c3e 9856 65be 64fa cebe
000001c0: 6449 80be a62d f2bc c522 c8bc 8916 c4bd
000001d0: 0383 b83e 254d c53e a4e5 773e 970e 38be
000001e0: 01a3 8abd a0b8 1f3e 7f59 1b3e a204 0f3d
000001f0: 92f7 89be 7655 3b3e c26b 853e 6fa9 743e
00000200: 7e19 043e 3bae 243e 6246 973c 33f5 84be
00000210: 1708 dabe a92e 0ebe bf43 bb3e 3b9d 1abe
00000220: c158 98be ed1c 8fbe 74bf a03d 27c7 4d3e
00000230: aee5 22be 0a27 953e d15c db3e 5547 963e
00000240: 3573 55bd ecb7 f1bc df3c 81bc d2bb 753d
00000250: 19d1 133d ff01 27be 68a3 f23c a757 4fbd
00000260: dec3 18bd 8831 2f3d b4e1 323e 9c2b f0bd
00000270: 5cf6 3dbd baf5 21be 94de 21bd 95a5 90ba
00000280: b67b 4dbe db8c c8be 1e32 f3bd e5f9 e4bd
00000290: 1076 11be e63c 86be a47c bdbe 7309 b2be
000002a0: 2484 f9bd b718 82bd 307b c1be a79a babe
000002b0: 31ed 73be 6f4c 13be f8d9 8fbc 7f4f aebe
000002c0: 2495 67be 87a2 bcbd f09e 84bd 2e3d 92bc
000002d0: 94ee f0bc 24f1 803d 8f53 f53c a8bf b6bc
000002e0: eb64 82bd f32a 37bc e785 cd3d 4436 423d
000002f0: 0ca6 563d 5309 24bd 0921 b1bd da1b 2f3e
00000300: 7bab 0c3e cf1c 123e 010c 2bbe aa23 f1bd
00000310: b6d4 dabb aa8f 2f3c 5826 243d ca99 4cbd
00000320: d001 e3bc f6ec 443d ea80 03bd f965 7d3d
00000330: 7695 b7bb efd9 bc3e acdd a13e 7342 d23e
00000340: 6aad 5e3e 0fcb eabc fc5d 573e c1d5 f83e
00000350: 6c49 cc3e a77d 803e 7d24 81bc 24ed af3e
00000360: 2f3c c63e 4d80 ae3e 3e22 673e 499d 163d
00000370: 3fdf 5b3e 0627 883e 23aa 353e 836d a33e
00000380: 943a aabd 0d6e 2abe e9ce 9cbd 8d84 623d
00000390: 7256 f1bc c6f0 02be 7951 0fbe e27f 05bd
000003a0: bbde 44bb bc25 e13c e9d0 993d 17d6 c13a
000003b0: b9bc 833d 0628 dc3d 38e1 d33d 5c2b c43d
000003c0: a6dd c33d 5b4d a93d 7787 1b3e 15c6 2b3e
000003d0: ebf5 833e 0233 c93d 7f89 143e 8f29 023e
000003e0: f8ff e63d 2975 503e 2fef 8cbd 9955 233c
000003f0: bb0b 0abd 22fa 323c 7129 b9bd c6c2 e6bd

conv1.bias f4 [6]
-0.34898257 -0.42520994 0.40819758 0.20394632 -0.25905964 -0.4073611
00000000: d8ad b2be 1eb5 d9be 46ff d03e 4ed7 503e
00000010: 77a3 84be a291 d0be

conv2.weight f4 [16, 6, 5, 5]
0.019206485 -0.23304214 -0.3069654 -0.3372944 -0.030749638 0.13402574 0.061041877 -0.22692595
-0.28873637 -0.034117356 0.24449046 0.09396973 -0.22190231 -0.32366565 -0.16647269 0.123972915
0.22853085 -0.19001363 -0.2569389 -0.073595226 -0.0035858015 0.22333169 0.21406774 -0.17291813
-0.010787882 -0.28121355 -0.29856065 -0.16329756 -0.0986524 -0.11119607 -0.25585455 -0.25707218
-0.38207984 -0.23045371 -0.19194278 -0.23951031 -0.2083368 -0.24820481 -0.27956724 -0.13802512
-0.0069084764 -0.03856802 -0.079924025 -0.016291909 -0.060207963 0.09026763 -0.026318302 0.09575407
0.30630168 0.32577878 -0.031916156 0.12730727 0.19144492 0.054283056 -0.13851255 -0.09318819
-0.054146115 0.023258466 0.082338676 -0.0492491 -0.11837023 -0.026505986 0.07323975 0.022554388
0.0436803 -0.23541497 -0.019659234 -0.028115626 0.17712043 0.13949473 -0.11175697 -0.012223966
0.09874573 0.23411013 0.27979475 0.07662733 -0.06556643 -0.05936969 -0.14361273 -0.14963675
0.04727258 0.04078851 0.029516593 -0.22881798 -0.08931006 0.1308083 0.09946278 0.07811173
-0.016628426 -0.09453647 0.109328546 0.24491851 0.048160657 0.05053751 -0.036546696 0.21420395
0.23745932 0.123982556 0.16890559 0.048601992 -0.18918942 -0.07480288 -0.00043680437 0.020275984
0.11132054 -0.28180292 -0.06667814 -0.08366214 -0.044523608 0.06315199 -0.14984329 -0.23551163
-0.047429934 -0.018105747 0.0038485625 -0.03861883 -0.06827052 -0.09048219 -0.08024372 0.10646741
0.32126674 0.24519277 0.040685307 0.031264193 0.23907247 -0.31134477 -0.26486564 -0.13899344
-0.11887094 -0.08520005 -0.33161286 -0.3292319 -0.22813864 -0.2652185 -0.18516989 -0.3158217
-0.28587526 -0.34177655 -0.20871662 -0.1729184 -0.085304245 -0.22194545 -0.25978377 -0.13336688
-0.06509567 -0.1637136 -0.029915402 -0.10854933 -0.023712141 -0.101160295 -0.015650894 -0.41758174
-0.06349021 -0.044310685 -0.08849048 0.04687808 0.14058045 -0.45553604 0.13611193 0.14021651
-0.27650997 0.48532566 0.17877424 -0.13045424 0.12328384 -0.025929866 -0.15501131 0.63209766
0.078776635 -0.01966174 0.045992468 -0.2854813 -0.33371204 0.04331806 0.10894109 -0.18156667
0.0402403 0.06756828 -0.09256954 -0.038255006 -0.07340011 -0.056458708 -0.008463326 -0.112080716
-0.07269941 0.15217738 -0.26938826 -0.29285595 0.04132688 -0.093211845 -0.17518905 0.26000232
-0.16221021 -0.16481632 -0.08185687 -0.4292107 0.07694873 0.3544593 0.061815795 -0.17024386
0.24335031 0.12388251 0.070385806 0.092573345 -0.015779389 0.11983476 0.069118366 -0.033734888
-0.11000721 -0.14392358 0.043350693 -0.0493944 0.03714047 -0.055226814 -0.20412311 0.21908052
-0.18097404 -0.117839634 0.0017583598 -0.21723501 0.25304127 -0.03483874 -0.033436015 -0.20060542
-0.22612298 -0.034564916 -0.04570863 -0.09779968 -0.111525945 -0.12773779 0.094544195 -0.08475875
-0.17178571 -0.12035221 -0.07097384 -0.036171585 0.03359069 -0.14108026 -0.106294006 -0.16469912
-0.039567586 -0.046161834 -0.10333684 -0.17288591 -0.04222006 0.18410045 -0.09443062 -0.056771286
-0.03296023 -0.026218269 0.032402094 -0.031315085 0.0210641 -0.06563153 0.049838323 0.28883743
00000000: eb56 9d3c 99a2 6ebe 922a 9dbe dab1 acbe
00000010: aae6 fbbc 0b3e 093e 0c07 7a3d 475f 68be
00000020: 41d5 93be a4be 0bbd b55b 7a3e 3473 c03d
00000030: 5c3a 63be 81b7 a5be d177 2abe 83e5 fd3d
00000040: fe03 6a3e ef92 42be 7f8d 83be 18b9 96bd
00000050: c4ff 6abb 10b1 643e 9334 5b3e 7311 31be
00000060: a8bf 30bc 39fb 8fbe f1dc 98be 7a37 27be
00000070: 450a cabd c4ba e3bd 5eff 82be f79e 83be
00000080: f89f c3be 0ffc 6bbe a68c 44be 3142 75be
00000090: 3e56 55be 6729 7ebe 7023 8fbe 7556 0dbe
000000a0: 8060 e2bb 80f9 1dbd 35af a3bd 9c76 85bc
000000b0: a09c 76bd 3cde b83d 7b99 d7bc b61a c43d
000000c0: 93d3 9c3e 7acc a63e 84ba 02bd d65c 023e
000000d0: 230a 443e e957 5e3d 3cd6 0dbe 73d9 bebd
000000e0: 51c8 5dbd 8a88 be3c 2ea1 a83d 6db9 49bd
000000f0: 176c f2bd 1523 d9bc b9fe 953d fbc3 b83c
00000100: 1dea 323d 9f10 71be 670c a1bc be52 e6bc
00000110: 0f5f 353e b5d7 0e3e d7e0 e4bd 0847 48bc
00000120: 343b ca3d 91ba 6f3e 4241 8f3e caee 9c3d
00000130: b147 86bd a22d 73bd 370f 13be 603a 19be
00000140: e5a0 413d da11 273d c8cc f13c 434f 6abe
00000150: 31e8 b6bd 9cf2 053e 24b3 cb3d 0bf9 9f3d
00000160: 5638 88bc 569c c1bd a5e7 df3d ebcb 7a3e
00000170: 1c44 453d 6c00 4f3d fdb1 15bd 4858 5b3e
00000180: 8928 733e 91ea fd3d 96f5 2c3e e212 473d
00000190: dfba 41be 4132 99bd e402 e5b9 d219 a63c
000001a0: 06fc e33d 7948 90be 8c8e 88bd 0e57 abbd
000001b0: 635e 36bd d555 813d 8570 19be f629 71be
000001c0: e445 42bd 8152 94bc 2a38 7c3b c72e 1ebd
000001d0: 6ad1 8bbd ba4e b9bd d256 a4bd 960b da3d
000001e0: 137d a43e d013 7b3e a3a5 263d e20e 003d
000001f0: 6acf 743e 9568 9fbe 789c 87be 4c54 0ebe
00000200: 9b72 f3bd 5d7d aebd 29c9 a9be 1591 a8be
00000210: 2d9d 69be b8ca 87be 2d9d 3dbe 62b3 a1be
00000220: 3e5e 92be 56fd aebe cfb9 55be 8511 31be
00000230: feb3 aebd ab45 63be 6102 85be 5491 08be
00000240: e150 85bd 8aa4 27be 2511 f5bc 1c4f debd
00000250: f73f c2bc 212d cfbd 4e36 80bc 46cd d5be
00000260: 2807 82bd 1f7f 35bd 7f3a b5bd 3b03 403d
00000270: 52f4 0f3e 053c e9be ed60 0b3e eb94 0f3e
00000280: b792 8dbe 9b7c f83e 9810 373e cc95 05be
00000290: 3d7c fc3d df6a d4bc 49bb 1ebe 27d1 213f
000002a0: a555 a13d a811 a1bc 9962 3c3d 9b2a 92be
000002b0: 4edc aabe 476e 313d 821c df3d 9dec 39be
000002c0: 03d3 243d 3d61 8a3d 1995 bdbd 48b1 1cbd
000002d0: cc52 96bd 3f41 67bd c3a9 0abc 938a e5bd
000002e0: 6ee3 94bd 63d4 1b3e 42ed 89be 37f1 95be
000002f0: 6046 293d dae5 bebd c264 33be 061f 853e
00000300: 6f1a 26be 9cc5 28be 93a4 a7bd 81c1 dbbe
00000310: 4c97 9d3d b07b b53e 8f32 7d3d 6854 2ebe
00000320: d330 793e 1db6 fd3d 6f26 903d 1897 bd3d
00000330: c743 81bc ed6b f53d ee8d 8d3d 982d 0abd
00000340: 764b e1bd b460 13be 7f90 313d c851 4abd
00000350: 9b20 183d 8335 62bd a605 51be a556 603e
00000360: 4251 39be e855 f1bd c478 e63a db72 5ebe
00000370: a08e 813e 11b3 0ebd 34f4 08bd 826b 4dbe
00000380: c88c 67be f193 0dbd f938 3bbd 334b c8bd
00000390: b767 e4bd b2cd 02be 63a0 c13d ff95 adbd
000003a0: 98e8 2fbe 387b f6bd bc5a 91bd a828 14bd
000003b0: 6496 093d 5877 10be acb0 d9bd e3a6 28be
000003c0: 9f11 22bd 3114 3dbd 44a2 d3bd 0109 31be
000003d0: f1ee 2cbd d484 3c3e d764 c1bd 0289 68bd
000003e0: 4e01 07bd b2c7 d6bc 0fb8 043d 3f44 00bd
000003f0: 9f8e ac3c d369 86bd 4523 4c3d 80e2 933e

conv2.bias f4 [16]
1.2476455 0.15395366 -1.0654957 0.07041195 -0.14792383 0.0049596624 -0.21567972 -0.25390375
-0.13382973 -1.3355975 -0.22547066 0.9165123 -0.63767743 -0.15628512 1.7925292 0.8849408
00000000: d9b2 9f3f 07a6 1d3e 2a62 88bf 2434 903d
00000010: 5879 17be aa84 a23b 25db 5cbe acff 81be
00000020: a90a 09be dcf4 aabf c8e1 66be 8da0 6a3f
00000030: d43e 23bf 3509 20be 9971 e53f 7b8b 623f

fc1.weight f4 [120, 400]
-0.0070641115 0.026205888 -0.026737463 -0.033768058 -0.0742053 0.0044912603 0.0069752415 -0.035822164
0.0042087426 -0.05802738 0.02881449 -0.05995514 0.02965686 0.042961515 -0.03994299 -0.07232258
-0.007621591 -0.009910417 -0.009980258 -0.023384068 -0.020229504 -0.037880532 -0.03639814 0.036528446
-0.070695356 0.044259187 -0.056009635 -0.065445185 0.0027711645 0.022802621 -0.025224496 -0.010818159
0.009710047 -0.060664915 -0.011068519 -0.00034412064 0.047783624 0.026567295 0.025155194 -0.0549849
0.021379413 -0.03507836 -0.018880127 -0.020121505 -0.05500403 -0.00088604755 0.03835069 0.041383464
-0.011434587 0.027430557 -0.0025144522 -0.0063063223 -0.019615332 -0.042094607 -0.025691362 -0.008555815
0.07769174 0.032703027 -0.021447845 -0.023840023 0.059852578 0.091308974 0.040522177 -0.017547483
-0.055274475 -0.03575036 0.036216553 -0.04407764 0.017142046 -0.043723326 0.04789243 -0.0023909863
0.005236567 0.03166575 0.06903436 -0.035405606 0.0356367 0.050116003 0.012852066 -0.0059230835
0.0202276 0.015657717 0.0067847385 0.0039539104 0.00024486092 0.0010672392 -0.04951982 0.030014114
0.029910795 0.00013072613 -0.024989277 0.0018171924 0.004308351 -0.0306821 -0.02769827 -0.0074711596
0.012693991 -0.04575427 0.00250339 -0.025778491 -0.0018892402 0.0076980023 0.0421167 -0.019638006
-0.004712516 0.009160144 0.028669236 0.054729957 -0.032672733 0.009801473 -0.008832214 -0.00090582226
-0.01389238 -0.03579773 0.009060119 -0.04353508 -0.04549992 -0.052592512 -0.017082863 -0.056149255
0.02073992 0.049861908 -0.036881216 -0.026416775 -0.08101048 0.035347372 -0.014807689 0.032351345
-0.05803437 -0.018870331 0.036814798 0.01427552 0.032576494 -0.03606614 0.025066532 -0.030079234
0.0055704187 0.05178682 0.04833507 -0.026613023 0.014782163 0.0090352325 0.0010552735 0.028009275
0.016699243 -0.04912685 0.016625091 0.0027234699 -0.0056540407 0.032848734 0.024586847 -0.0010626459
-0.032928903 -0.06504155 -0.016602386 -0.006097124 0.041642074 -0.058681037 0.008622572 -0.06500906
0.012754076 -0.011025705 -0.0054144105 -0.027799467 0.05458411 -0.030278105 -0.027491467 0.009681272
0.01402396 0.054089617 -0.073553845 -0.039708745 0.015548528 0.013752908 0.011129063 0.027007125
0.06553604 0.044116877 0.021135895 0.037846714 0.017598448 0.12124087 0.01688604 0.057401147
0.017408686 -0.0345237 0.09645541 0.04566436 -0.026308894 -0.042922705 -0.010791073 -0.033555757
0.01888865 -0.020820273 0.015378942 0.022277588 -0.07472819 0.009343252 -0.022591392 -0.01442715
0.008147499 -0.03784543 -0.015786167 5.6009423e-05 -0.037466932 -0.00029684065 -0.003413246 -0.061582685
0.0328654 -0.04648521 0.04517215 -0.00038561918 -0.0120021105 -0.06281136 -0.012265763 -0.014557608
-0.038742237 -0.0075806538 0.012708085 0.029405927 -0.041193184 -0.026233448 -0.028096415 -0.005391495
0.018660316 -0.01826802 0.0042019817 -0.019079203 -0.060114957 0.014311922 0.011732021 -0.032611374
-0.008006042 -0.06690436 0.020773154 -0.051756043 -0.034895748 -0.01857573 0.0023533814 -0.024434423
0.021773182 0.07440587 0.027080454 -0.008583925 0.011206462 0.05831477 0.006844574 -0.0024602076
0.025600065 -0.0205151 0.05822733 -0.024290282 0.03790341 -0.024698006 -0.039463278 0.024493888
00000000: 107a e7bb bbad d63c 8608 dbbc 6050 0abd
00000010: f3f8 97bd 6c2b 933b 9190 e43b 43ba 12bd
00000020: 7ee9 893b 1eae 6dbd 5e0c ec3c 8593 75bd
00000030: f1f2 f23c 6af8 2f3d 439b 23bd dc1d 94bd
00000040: 8abe f9bb 4d5f 22bc 3c84 23bc f28f bfbc
00000050: 58b8 a5bc 9e28 1bbd 3716 15bd da9e 153d
00000060: bac8 90bd 1f49 353d 5c6a 65bd 2008 86bd
00000070: 6d9c 353b 90cc ba3c 9aa3 cebc a63e 31bc
00000080: e416 1f3c c67b 78bd bc58 35bc 176b b4b9
00000090: c3b8 433d a8a3 d93c 4412 ce3c d937 61bd
000000a0: e123 af3c 54ae 0fbd 7faa 9abc dbd5 a4bc
000000b0: e84b 61bd a545 68ba 9d15 1d3d b581 293d
000000c0: 2258 3bbc 0cb6 e03c 82c9 24bb 44a5 cebb
000000d0: 55b0 a0bc 656b 2cbd b176 d2bc b02d 0cbc
000000e0: d91c 9f3d 9cf3 053d 64b3 afbc 274c c3bc
000000f0: fa27 753d 3300 bb3d 95fa 253d bdbf 8fbc
00000100: 7d67 62bd f86e 12bd cf57 143d c18a 34bd
00000110: 7a6d 8c3c 3b17 33bd da2a 443d 18b2 1cbb
00000120: 8297 ab3b f2b3 013d e361 8d3d 7805 11bd
00000130: caf7 113d 7046 4d3d 7991 523c 6d16 c2bb
00000140: 5ab4 a53c 9d44 803c 8352 de3b ce8f 813b
00000150: ad60 8039 9be2 8b3a 4bd5 4abd 29e0 f53c
00000160: 7c07 f53c 8713 0939 50b6 ccbc dc2e ee3a
00000170: 112d 8d3b 0759 fbbc 7be7 e2bc a1d0 f4bb
00000180: 75fa 4f3c d468 3bbd ea0f 243b 6a2d d3bc
00000190: 62a0 f7ba 863f fc3b 9082 2c3d e2df a0bc
000001a0: 736b 9abb 6e14 163c bfdb ea3c 852c 603d
000001b0: d8d3 05bd 5b96 203c feb4 10bc b474 6dba
000001c0: dd9c 63bc a4a0 12bd e570 143c d751 32bd
000001d0: 205e 3abd 3f6b 57bd 5cf1 8bbc c3fc 65bd
000001e0: c4e6 a93c 003c 4c3d c210 17bd fe67 d8bc
000001f0: d3e8 a5bd 68c8 103d f39b 72bc d882 043d
00000200: 73b5 6dbd f495 9abc 1dcb 163d dfe3 693c
00000210: ee6e 053d 17ba 13bd 5458 cd3c ba68 f6bc
00000220: 0f88 b63b 6b1e 543d fffa 453d 8e03 dabc
00000230: e330 723c 8308 143c 1a51 8a3a b573 e53c
00000240: dacc 883c 3c39 49bd 5831 883c 3e7c 323b
00000250: 8845 b9bb 658c 063d 5b6a c93c 7b48 8bba
00000260: 75e0 06bd 8134 85bd ba01 88bc 62ca c7bb
00000270: e190 2a3d 875b 70bd b045 0d3c 7823 85bd
00000280: 79f6 503c 29a5 34bc 5e6b b1bb b5bb e3bc
00000290: 9693 5f3d ca09 f8bc c935 e1bc 339e 1e3c
000002a0: c0c4 653c 138d 5d3d 66a3 96bd a3a5 22bd
000002b0: 41bf 7e3c e153 613c ac56 363c 0c3e dd3c
000002c0: c237 863d e6b3 343d 2f25 ad3c 2805 1b3d
000002d0: 9f2a 903c 224d f83d 9854 8a3c 771d 6b3d
000002e0: a99c 8e3c b968 0dbd 6a8a c53d 8d0a 3b3d
000002f0: c085 d7bc b8cf 2fbd 0acd 30bc c371 09bd
00000300: 5fbc 9a3c 478f aabc f5f7 7b3c 7d7f b63c
00000310: 180b 99bd 7014 193c 9511 b9bc da5f 6cbc
00000320: 167d 053c cf03 1bbd fe51 81bc a9eb 6a38
00000330: ed76 19bd 47a1 9bb9 c4b0 5fbb 203e 7cbd
00000340: df9d 063d 4767 3ebd 6f06 393d ee2c cab9
00000350: 80a4 44bc 3ea3 80bd 57f6 48bc 0983 6ebc
00000360: 2eb0 1ebd 2267 f8bb 9235 503c b3e4 f03c
00000370: 2fba 28bd 87e7 d6bc 742a e6bc 23ab b0bb
00000380: 85dd 983c d1a6 95bc c7b0 893b fd4b 9cbc
00000390: 1a3b 76bd 8d7c 6a3c aa37 403c 8193 05bd
000003a0: c62b 03bc 2705 89bd 762c aa3c 25fe 53bd
000003b0: d8ee 0ebd 212c 98bc 303b 1a3b b32a c8bc
000003c0: ac5d b23c 1b62 983d d4d7 dd3c 97a3 0cbc
000003d0: 4f9b 373c 78db 6e3d 7348 e03b 6f3b 21bb
000003e0: 3ab7 d13c 480f a8bc c87f 6e3d 6afc c6bc
000003f0: 9b40 1b3d 7953 cabc 3fa4 21bd 68a7 c83c

fc1.bias f4 [120]
0.016278677 0.005197032 0.2856219 0.041920528 -0.01592101 0.046670303 -0.14651138 -0.0046470077
0.13003528 0.09401829 0.20717803 -0.121397905 0.25553715 0.09923161 0.1529432 0.12663245
0.11399841 0.072441116 0.032197233 -0.044861495 0.039802752 -0.056882348 0.028869912 0.026593352
-0.074827224 -0.0742945 0.1705628 0.0014640681 0.028139716 0.11874926 -0.036622 -0.03977371
0.013351778 0.10163785 -0.0011959195 0.14906399 -0.010767706 0.18301865 0.017310074 -0.016688047
0.027332807 0.07032682 -0.03891164 0.27915022 -0.121777244 0.011638447 -0.12184103 0.1730952
0.015051625 -0.16388908 0.13780886 0.28397402 -0.029600058 -0.100383714 -0.055070575 0.038505726
-0.007032067 -0.04363973 0.004500481 0.042245276 0.07319813 0.019051535 0.045483705 0.15356724
-0.157585 0.0698308 0.31055874 0.1394684 0.15420415 -0.012372512 -0.06090188 0.08116346
0.015266985 0.10572185 0.12678923 0.2971489 -0.0060811285 0.13335325 0.11770448 -0.0071910205
0.25538713 -0.2474377 -0.1216329 0.009091582 0.25698182 0.031645272 0.056901425 0.015241026
-0.05782982 0.054529663 -0.1561308 0.08052126 0.036108445 -0.04071247 -0.02817877 0.033194687
-0.011646018 0.12004133 -0.08511792 -0.13027576 0.21078461 0.1752345 0.12099472 -0.08983935
-0.009430091 0.035090636 0.15836416 0.16224012 -0.12985264 0.027495569 -0.15929486 0.10417099
0.053077538 -0.01631973 -0.04403147 -0.10022177 -0.0956797 0.0076451027 0.11747109 0.07769499
00000000: dc5a 853c dd4b aa3b 093d 923e dcb4 2b3d
00000010: c76c 82bc 5c29 3f3d 1407 16be ed45 98bb
00000020: f827 053e a98c c03d 7a26 543e 779f f8bd
00000030: c4d5 823e f139 cb3d 249d 1c3e f0ab 013e
00000040: 0078 e93d 025c 943d 3fe1 033d b0c0 37bd
00000050: 3608 233d 77fd 68bd 9880 ec3c 4dda d93c
00000060: 043f 99bd b727 98bd 04a8 2e3e f9e5 bf3a
00000070: 4385 e63c d032 f33d f300 16bd c2e9 22bd
00000080: 6ac1 5a3c 8127 d03d 66c0 9cba 3ba4 183e
00000090: 086b 30bc 3e69 3b3e dbcd 8d3c 5fb5 88bc
000000a0: 0de9 df3c 8207 903d d061 1fbd c7ec 8e3e
000000b0: 5966 f9bd 2faf 3e3c ca87 f9bd de3f 313e
000000c0: 179b 763c 8ad2 27be c41d 0d3e 0b65 913e
000000d0: d27b f2bc fa95 cdbd af91 61bd 2eb8 1d3d
000000e0: 416d e6bb 93bf 32bd c578 933b 6209 2d3d
000000f0: e7e8 953d f711 9c3c 1f4d 3a3d bb40 1d3e
00000100: f65d 21be 7303 8f3d 8e01 9f3e ced0 0e3e
00000110: b1e7 1d3e 14b6 4abc 4074 79bd 0739 a63d
00000120: 6022 7a3c b384 d83d 09d5 013e e723 983e
00000130: 3444 c7bb c18d 083e 0c0f f13d a7a2 ebbb
00000140: 1ac2 823e 4f60 7dbe ab1a f9bd dcf4 143c
00000150: 1f93 833e 799e 013d 7811 693d 7fb5 793c
00000160: f6de 6cbd 7f5a 5f3d c1e0 1fbe 55e8 a43d
00000170: 73e6 133d 1ec2 26bd 2ad7 e6bc 27f7 073d
00000180: f1ce 3ebc 3bd8 f53d 4e52 aebd 0267 05be
00000190: ecd7 573e ac70 333e 14cc f73d b1fd b7bd
000001a0: ab80 1abc 33bb 0f3d 372a 223e 4622 263e
000001b0: 17f8 04be 633e e13c 311e 23be 9a57 d53d
000001c0: d567 593d f4b0 85bc 585a 34bd 1241 cdbd
000001d0: b8f3 c3bd c583 fa3b af94 f03d 8d1e 9f3d

fc2.weight f4 [84, 120]
0.07986311 -0.07736338 0.08715889 -0.077264115 0.029400248 -0.105513215 0.029356007 -0.084423736
-0.12082545 0.044253815 -0.108442225 0.08905515 -0.0021694354 -0.14028776 -0.053358465 0.02759755
0.021495145 -0.048836254 -0.14256783 -0.074985586 0.07282304 0.001246746 0.015354906 -0.00061238057
0.0057656127 -0.008844904 -0.12720257 0.02088712 0.04242772 -0.120472156 -0.045814153 -0.06332949
-0.047627814 -0.045998137 -0.044141088 0.040662326 0.06830106 0.0092271 0.1199792 0.0106001785
-0.098206304 0.0021875945 -0.13620988 -0.014340865 -0.07150328 -0.011498694 0.039114397 -0.07894794
0.009886326 0.07272042 -0.09431143 -0.09984207 0.031460326 -0.03148018 0.06495428 0.018527934
-0.093936495 0.018012755 0.03266787 -4.8602564e-05 0.048466615 0.048968613 0.1146838 -0.0346528
0.0052854344 0.054998122 0.036430977 0.015564493 -0.033785652 -0.061668236 -0.045120437 -0.08437043
-0.034241308 0.07107687 -0.031900786 0.03718612 0.014462894 -0.009287355 0.025735516 0.06617545
-0.026857393 -0.054619458 -0.008073622 0.12762389 0.02356374 0.023162397 -0.013014789 -0.07214818
-0.0014900629 -0.09726563 0.05855342 -0.0004059989 0.006848883 0.046436843 0.14487533 -0.060014967
-0.028459556 0.1672195 -0.020909041 0.0114401085 -0.03972753 0.0419745 0.018810626 0.12338664
-0.058838524 -0.09499273 0.13501579 0.050280042 -0.07586856 -0.010079834 -0.039261553 0.030988919
-0.1536293 0.01970523 -0.022895226 0.02669126 -0.06541373 0.031959586 0.1883953 -0.10117276
-0.07141999 0.04185776 -0.06870596 -0.027600372 0.0066182315 -0.06530595 -0.1138273 -0.06165951
0.073412485 -0.21179397 0.012429037 0.059598245 -0.042825524 0.101543844 -0.047053553 0.19089557
-0.080105774 -0.049821034 0.010974371 0.13337104 0.038193535 -0.1426289 -0.05074955 -0.0831077
-0.06349939 -0.14777668 0.0012078701 -0.029768325 0.11953587 -0.07979652 0.013574858 -0.038482074
0.020138834 -0.079958275 -0.042137954 -0.0029630277 -0.09252253 -0.06666512 0.12768087 -0.11582027
0.13241397 0.050933667 0.024677247 -0.051791944 -0.032568313 0.15898721 -0.018921012 0.06811357
-0.07798424 -0.14849678 -0.09913605 0.076121725 -0.021303058 -0.07354378 0.022189211 0.055061687
-0.013683869 -0.06843637 -0.04610348 0.07810216 0.17244633 -0.03645962 0.014696186 0.17377937
0.13083373 0.049383923 -0.056763537 0.06952682 -0.043449637 -0.017627597 -0.16478598 -0.11525117
-0.06820797 0.06372994 -0.06712652 0.007481487 0.093505464 -0.0821685 0.012945414 -0.07117864
0.035535913 -0.009903495 -0.10442506 -0.08459011 -0.080885 -0.098949686 0.077180505 -0.10622382
0.06318381 0.010053329 -0.02825271 0.09507353 -0.08241829 0.051770516 0.06511104 -0.047829065
0.05941343 0.10087675 0.07878548 -0.09610829 -0.024465539 -0.08842062 -0.15181242 0.060219545
0.109135725 0.0992134 0.012209859 -0.1418627 -0.06963093 -0.09895273 0.05429369 -0.062140226
0.12262354 -0.112891026 -0.04924465 -0.09431323 0.04049977 0.044429593 -0.05735248 -0.017264174
0.06394034 -0.0041453587 0.028417382 -0.102925055 0.06612031 0.082186006 -0.06522878 0.07146744
-0.1742101 0.03584504 0.09866415 -0.20619822 0.07812275 -0.1157561 0.0030350776 -0.038615793
00000000: 458f a33d b170 9ebd 5c80 b23d a63c 9ebd
00000010: cad8 f03c 5017 d8bd 027c f03c 5ae6 acbd
00000020: 5573 f7bd 7d43 353d f516 debd 8c62 b63d
00000030: 162d 0ebb 98a7 0fbe 688e 5abd 4214 e23c
00000040: 9616 b03c 8608 48bd 4dfd 11be 0b92 99bd
00000050: 3f24 953d db69 a33a 2593 7b3c 2a88 20ba
00000060: 77ed bc3b 37ea 10bc 6441 02be 771b ab3c
00000070: b0c8 2d3d 1bba f6bd 9fa7 3bbd e4b2 81bd
00000080: 6215 43bd 8b68 3cbd 49cd 34bd 8a8d 263d
00000090: 6de1 8b3d 432d 173c a8b7 f53d 5fac 2d3c
000000a0: 6320 c9bd bf5d 0f3b 9a7a 0bbe f3f5 6abc
000000b0: 5070 92bd 0565 3cbc 6b36 203d 75af a1bd
000000c0: 42fa 213c 72ee 943d 5a26 c1bd 007a ccbd
000000d0: 8bdc 003d 5cf1 00bd c006 853d e5c7 973c
000000e0: c761 c0bd 7c8f 933c bfce 053d 9bda 4bb8
000000f0: ee84 463d 5093 483d 57df ea3d 18f0 0dbd
00000100: 7031 ad3b b645 613d a638 153d 3702 7f3c
00000110: d362 0abd d597 7cbd 35d0 38bd 67ca acbd
00000120: 9d40 0cbd c090 913d 66aa 02bd 7950 183d
00000130: c6f5 6c3c fd29 18bc 4ad3 d23c ff86 873d
00000140: 0904 dcbc a7b8 5fbd 3a47 04bc d6af 023e
00000150: bf08 c13c 11bf bd3c fb3b 55bc 6dc2 93bd
00000160: 374e c3ba 3433 c7bd b6d5 6f3d 40dc d4b9
00000170: 986c e03b 8f34 3e3d 335a 143e 41d2 75bd
00000180: 0424 e9bc 973b 2b3e 7049 abbc 4b6f 3b3c
00000190: 56b9 22bd 74ed 2b3d be18 9a3c 22b2 fc3d
000001a0: aa00 71bd 8c8b c2bd 9441 0a3e 72f2 4d3d
000001b0: fa60 9bbd e325 25bc b9d0 20bd 79dc fd3c
000001c0: 0051 1dbe dd6c a13c c58e bbbc a1a7 da3c
000001d0: a2f7 85bd 0ee8 023d b3ea 403e aa33 cfbd
000001e0: a544 92bd 0b73 2b3d b6b5 8cbd 2d1a e2bc
000001f0: c0dd d83b 20bf 85bd 4a1e e9bd af8e 7cbd
00000200: 4959 963d 85e0 58be 29a3 4b3c 4a1d 743d
00000210: d169 2fbd 38f6 cf3d 3abb 40bd 217a 433e
00000220: 7f0e a4bd 2411 4cbd d9cd 333c 6b92 083e
00000230: d370 1c3d 4f0d 12be c3de 4fbd 5f34 aabd
00000240: f80b 82bd c552 17be 6551 9e3a b4dc f3bc
00000250: 39cf f43d 5c6c a3bd 1569 5e3c 619f 1dbd
00000260: 32fa a43c 2ac1 a3bd d998 2cbd 5b2f 42bb
00000270: 747c bdbd b987 88bd c6be 023e 2d33 edbd
00000280: 8797 073e d29f 503d f027 ca3c ca23 54bd
00000290: 5a66 05bd 8bcd 223e 3d00 9bbc 217f 8b3d
000002a0: 34b6 9fbd 8a0f 18be d707 cbbd b5e5 9b3d
000002b0: c083 aebc 1f9e 96bd 26c6 b53c 5d88 613d
000002c0: 4e32 60bc 5e28 8cbd 01d7 3cbd 06f4 9f3d
000002d0: c595 303e af56 15bd 46c8 703c 38f3 313e
000002e0: 47f9 053e cc46 4a3d e280 68bd 1464 8e3d
000002f0: 3ff8 31bd c067 90bc a8bd 28be ce08 ecbd
00000300: 9fb0 8bbd d884 823d a179 89bd 4327 f53b
00000310: cb7f bf3d f547 a8bd 0019 543c 1bc6 91bd
00000320: 1b8e 113d 4542 22bc cedc d5bd 943d adbd
00000330: 09a7 a5bd 22a6 cabd d010 9e3d e08b d9bd
00000340: 8366 813d b8b6 243c 3a72 e7bc e9b5 c23d
00000350: ecca a8bd 520d 543d f058 853d 69e8 43bd
00000360: 7f5b 733d 7898 ce3d 485a a13d 6cd4 c4bd
00000370: f46b c8bc df15 b5bd b774 1bbe c5a8 763d
00000380: 8d82 df3d 6530 cb3d dc0b 483c 7544 11be
00000390: a99a 8ebd bba7 cabd 0f63 5e3d c086 7ebd
000003a0: 0d22 fb3d 6933 e7bd c2b4 49bd 4b27 c1bd
000003b0: 16e3 253d cefb 353d 6fea 6abd 996d 8dbc
000003c0: 27f3 823d cad5 87bb 92cb e83c 5fca d2bd
000003d0: 166a 873d 2351 a83d ab96 85bd 855d 923d
000003e0: 2264 32be 40d2 123d 6e10 ca3d a025 53be
000003f0: d2fe 9f3d 8911 edbd 27e8 463b 982b 1ebd

fc2.bias f4 [84]
0.13685934 0.17323917 -0.03354816 -0.00090118084 0.020530947 0.027769817 0.02150696 0.16153386
-0.0028352349 0.21928988 0.019390037 -0.06702 0.22499263 0.06278337 -0.063167684 0.17093733
0.028106803 -0.05857815 -0.03305941 0.43101564 0.25514588 0.10431973 0.25535998 0.07743033
0.021574344 0.570895 -0.05966459 -0.02459269 0.111957006 0.20090787 0.391632 0.11466339
0.1995185 0.19102336 -0.026447544 -0.013459386 -0.14282514 0.06875461 0.21041258 0.037244234
0.2781429 0.49255773 0.5060187 -0.092294 -0.0072997827 -0.024708996 0.1080117 0.09489315
0.14365023 0.26699826 0.027430642 0.10416614 0.27970102 -0.034949075 -0.07402208 0.07507645
0.1767079 0.5621637 0.01865156 -0.037567474 0.07131342 0.063079074 0.0376755 0.3011583
0.1397731 -0.08051578 0.5548491 0.057570286 -0.07371922 0.3039007 -0.025625424 0.008961035
-0.032385282 0.008505135 0.028790332 -0.07345823 0.06493984 0.045014817 0.47805145 0.22988318
0.24109632 -0.07491489 -0.22276829 -0.07202227
00000000: db24 0c3e 9c65 313e cc69 09bd 393d 6cba
00000010: 8430 a83c 877d e33c 5d2f b03c 2269 253e
00000020: 59cf 39bb 878d 603e dbd7 9e3c c841 89bd
00000030: 7864 663e 9194 803d 0f5e 81bd 320a 2f3e
00000040: 3d40 e63c a4ef 6fbd 4e69 07bd 15ae dc3e
00000050: 7ba2 823e 95a5 d53d 8bbe 823e cb93 9e3d
00000060: aebc b03c 2d26 123f db62 74bd 9c76 c9bc
00000070: b749 e53d cbba 4d3e fd83 c83e a4d4 ea3d
00000080: 944e 4c3e a19b 433e 85a8 d8bc c284 5cbc
00000090: c140 12be 38cf 8c3d 6576 573e 698d 183d
000000a0: bf68 8e3e 8730 fc3e 718a 013f a304 bdbd
000000b0: 0433 efbb 856a cabc 3d35 dd3d 5757 c23d
000000c0: 0c19 133e ffb3 883e 3ab6 e03c 0f55 d53d
000000d0: f934 8f3e c326 0fbd e398 97bd afc1 993d
000000e0: eaf2 343e f6e9 0f3f 28cb 983c 5ae0 19bd
000000f0: c50c 923d 9a2f 813d a051 1a3d 6c31 9a3e
00000100: ae20 0f3e 75e5 a4bd 970a 0e3f d2ce 6b3d
00000110: 1afa 96bd df98 9b3e 69ec d1bc 4ed1 123c
00000120: 6ea6 04bd 1f59 0b3c b4d9 eb3c 4571 96bd
00000130: 2eff 843d 7561 383d 29c3 f43e 7f66 6b3e
00000140: f4e1 763e fa6c 99bd 5f1d 64be 6980 93bd

fc3.weight f4 [10, 84]
0.115699 -0.25602263 0.15664966 0.19693038 -0.0002999544 -0.19016719 -0.06264361 -0.20933826
-0.16725408 0.14874698 0.21022956 0.09609224 0.11749631 0.07836746 -0.0041839588 -0.15828703
0.065574214 0.05509523 -0.0027821388 -0.33809415 -0.36911798 0.06381167 0.15959947 -0.020221738
-0.0058713844 -0.2843651 -0.06793699 0.030182356 0.13241595 0.23112011 -0.14304551 0.20455728
0.05409454 0.18344535 0.14422691 -0.06347843 0.11582386 -0.024875144 -0.019293496 -0.049516194
-0.13307427 -0.10672001 -0.16772555 -0.073254146 0.21381663 0.14202797 -0.16735546 -0.029953195
-0.007879367 0.30957073 0.03062694 -0.15142854 0.25071627 0.20161563 0.059314825 -0.050388485
0.14654145 -0.03609243 -0.032285463 0.09505332 0.008141862 0.10226661 0.15279506 0.12741391
-0.010477805 -0.039423022 0.16712767 0.016710136 -0.02058704 0.023925612 -0.07315962 0.10521878
-0.05007013 -0.015798515 0.021890854 -0.0051347977 -0.052290402 0.22075668 -0.14388949 0.013193444
-0.08334423 0.061222974 0.20285884 -0.001295526 0.06864933 0.14094132 0.30586934 -0.018347414
0.04576062 -0.06506417 0.3345798 -0.006100901 -0.15459651 -0.04435437 0.13704166 0.19460526
-0.10019903 0.26327592 -0.007855619 -0.13094115 0.18715812 -0.064569235 0.06863025 0.17324188
0.05397921 -0.07492484 -0.23605719 -0.18448305 0.057193555 -0.3556584 0.13155611 -0.050919823
-0.16587985 0.22609416 -0.17620397 0.061266307 0.023712942 -0.049263675 0.1748236 0.047026463
-0.11183416 -0.16362688 0.16990162 -0.035193518 -0.32268545 -0.1314231 -0.4862854 0.052715912
-0.043891065 0.21503401 -0.04807995 -0.0018703111 0.14873897 -0.1266454 0.17498429 0.26620284
0.17044842 0.24617103 -0.06740473 0.2587786 -0.040828753 -0.2006142 0.0028755588 -0.096722074
0.11793264 -0.094091885 0.15432493 -0.24677841 0.17459883 -0.11852022 -0.35536203 0.009478917
0.051183213 -0.31320196 0.089871764 0.24310987 -0.03773594 -0.13539353 -0.16212347 -0.09499673
-0.058583934 0.08438254 -0.06390845 0.016088692 0.19533461 0.0673962 0.089345075 0.20356643
-0.08608412 -0.005016938 -0.15435062 -0.028068386 0.059040315 -0.08311899 -0.044103947 -0.1786248
-0.13343912 0.01811708 0.12810403 0.14750382 -0.06449106 -0.11078627 -0.059182603 0.1519844
-0.05839637 0.08898837 0.027186884 0.20218518 0.24552876 -0.089531854 0.18486725 0.11300123
-0.09514176 -0.007095399 0.050493903 0.11584018 0.2809571 -0.1349907 -0.15484856 0.115981795
0.049271822 -0.17218238 -0.00033143535 0.072719686 0.27087003 0.07507346 -0.14134224 0.084726125
0.12295921 0.09884906 0.04623844 -0.025634354 -0.16754922 -0.11892347 -0.036806043 0.033247594
-0.29242855 0.157723 -0.14438236 0.033267926 -0.11230396 -0.011512685 -0.092329875 0.09630225
0.18888953 0.19115418 0.0033168127 -0.10930972 -0.08428749 0.15159155 -0.12380791 0.12739097
-0.019820282 -0.038545754 0.12942274 -0.14520903 -0.19985002 0.37304384 0.047600154 0.133325
-0.077262044 0.052300125 -0.0067098695 0.08071151 -0.111778446 -0.07309391 0.29294956 -0.054747522
0.028703017 -0.09259884 0.1867901 0.093431525 0.049208306 -0.057415918 -0.12817386 -0.03395585
00000000: 99f3 ec3d 6615 83be c568 203e 1ea8 493e
00000010: 3343 9db9 30bb 42be 4b4b 80bd c55c 56be
00000020: a744 2bbe 2151 183e 6b46 573e 02cc c43d
00000030: e8a1 f03d 1e7f a03d 9719 89bb ff15 22be
00000040: c64b 863d 89ab 613d 8b54 36bb ad1a adbe
00000050: 08fd bcbe b1af 823d 0b6e 233e 0fa8 a5bc
00000060: be64 c0bb 4d98 91be 8c22 8bbd fd40 f73c
00000070: 0c98 073e c0aa 6c3e 867a 12be 7777 513e
00000080: 3d92 5d3d 19d9 3b3e 38b0 133e fb00 82bd
00000090: 0f35 ed3d f5c6 cbbc 650d 9ebc 7ed1 4abd
000000a0: 9f44 08be 0590 dabd 3fc0 2bbe 4506 96bd
000000b0: bff2 5a3e c86f 113e 3b5f 2bbe 6760 f5bc
000000c0: 7618 01bc 0e80 9e3e 59e5 fa3c 1510 1bbe
000000d0: e25d 803e 5474 4e3e 1af4 723d 2864 4ebd
000000e0: f60e 163e a8d5 13bd c33d 04bd 51ab c23d
000000f0: 7265 053c 2871 d13d 4f76 1c3e cb78 023e
00000100: 19ab 2bbc 097a 21bd 8423 2b3e b2e3 883c
00000110: 27a6 a8bc a5ff c33c b6d4 95bd f27c d73d
00000120: 5616 4dbd e36b 81bc 7354 b33c ce41 a8bb
00000130: 762e 56bd 0a0e 623e c457 13be 5129 583c
00000140: 61b0 aabd f1c4 7a3d 3aba 4f3e a4ce a9ba
00000150: 0598 8c3d ec52 103e e89a 9c3e 514d 96bc
00000160: 7d6f 3b3d 5d40 85bd 0b4e ab3e 11ea c7bb
00000170: 8c4e 1ebe eeac 35bd a654 0c3e 9a46 473e
00000180: 2635 cdbd 1acc 863e dbb4 00bc 7015 06be
00000190: 61a6 3f3e e03c 84bd 048e 8c3d 5266 313e
000001a0: 4e19 5d3d 3272 99bd fab8 71be 20e9 3cbe
000001b0: ca43 6a3d dc18 b6be a5b6 063e 4e91 50bd
000001c0: 68dc 29be 3a85 673e d06e 34be 61f2 7a3d
000001d0: a541 c23c b5c8 49bd f504 333e d29e 403d
000001e0: 4f09 e5bd ce8d 27be b1fa 2d3e 1427 10bd
000001f0: 0737 a5be c793 06be 66fa f8be a4ec 573d
00000200: 1ec7 33bd e031 5c3e 7bef 44bd 3a25 f5ba
00000210: 074f 183e 55af 01be 152f 333e bd4b 883e
00000220: 088a 2e3e 4214 7c3e 7e0b 8abd a17e 843e
00000230: 0d3c 27bd cf6d 4dbe df73 3c3b 3916 c6bd
00000240: ab86 f13d 3fb3 c0bd 5b07 1e3e 7bb3 7cbe
00000250: 09ca 323e bbba f2bd 03f2 b5be 764d 1b3c
00000260: 7da5 513d 025c a0be b00e b83d cbf1 783e
00000270: 0091 1abd 9aa4 0abe b203 26be a58d c2bd
00000280: b5f5 6fbd c1d0 ac3d 6fe2 82bd 6fcc 833c
00000290: cc05 483e 0507 8a3d 8dfa b63d b873 503e
000002a0: df4c b0bd 2065 a4bb 170e 1ebe acef e5bc
000002b0: 42d4 713d 4a3a aabd 57a6 34bd 6be9 36be
000002c0: 44a4 08be 456a 943c b42d 033e 3e0b 173e
000002d0: e413 84bd e9e3 e2bd 7569 72bd cca1 1b3e
000002e0: 0831 6fbd 893f b63d 07b7 de3c a209 4f3e
000002f0: e46b 7b3e 7a5c b7bd d74d 3d3e 306d e73d
00000300: afd9 c2bd 8580 e8bb b2d2 4e3d 9e3d ed3d
00000310: 9cd9 8f3e 013b 0abe 9f90 1ebe dd87 ed3d
00000320: 40d1 493d 9450 30be 80c4 adb9 0fee 943d
00000330: 7aaf 8a3e 1dc0 993d 05bc 10be e484 ad3d
00000340: 0ad2 fb3d 6071 ca3d 8564 3d3d 23ff d1bc
00000350: 0692 2bbe 268e f3bd efc1 16bd a12e 083d
00000360: 32b9 95be 2382 213e f8d8 13be f343 083d
00000370: 9eff e5bd b39f 3cbc 7217 bdbd 1d3a c53d
00000380: 426c 413e ecbd 433e e25e 593b c6dd dfbd
00000390: eb9e acbd d13a 1b3e 008f fdbd c772 023e
000003a0: 255e a2bc 27e2 1dbd 6587 043e adb1 14be
000003b0: 7ca5 4cbe 9aff be3e 61f8 423d 5986 083e
000003c0: 903b 9ebd a838 563d 77de dbbb 134c a53d
000003d0: 19ec e4bd 43b2 95bd 7cfd 953e f03e 60bd
000003e0: 9722 eb3c 76a4 bdbd e745 3f3e 0759 bf3d
000003f0: a68e 493d f42c 6bbd 0240 03be 4a15 0bbd

fc3.bias f4 [10]
-0.3713269 -0.5954711 -0.14480007 0.5507647 0.6932774 -0.0881152 0.23100194 -0.24517478
0.25118753 -0.34153008
00000000: 8f1e bebe cb70 18bf 7846 14be eafe 0c3f
00000010: a17a 313f be75 b4bd c68b 6c3e 190f 7bbe
00000020: a79b 803e 08dd aebe
